models/brain_siren_1058685.pth (torch, 798359 bytes, 9 tensors)

net.0.linear.weight f4 [256, 3]
000000 ed 4b 8a be be 93 2e 3e f5 3a a9 3e 88 0d 51 be
       -0.27011052 0.17048547 0.33052793 -0.20415318
000010 0e e5 14 be 60 e3 34 3e b5 9d 7f be 21 ad a8 3d
       -0.14540502 0.17664862 -0.24962504 0.08236147
000020 9e 12 5d be 7f 5a 5a be 5a 95 79 3e cb b5 64 3e
       -0.21589133 -0.21323584 0.2437338 0.22334974
000030 e1 e0 b1 bd 85 58 0f 3e 69 7f 06 3e 1d c6 52 3e
       -0.0868547 0.13998611 0.1313454 0.20583387
000040 27 fd 40 3e 7c 25 7b bd 2c ff 17 3c ca ef 78 bc
       0.1884657 -0.061315045 0.009277146 -0.015193889
000050 6e f1 82 be 86 92 9f 3e ee 29 91 bd 70 ad 98 3e
       -0.2557482 0.31166476 -0.070880756 0.29819822
000060 7d b0 8e 3e 25 69 61 be 2e 50 26 3e b8 e5 2f 3e
       0.27869025 -0.22012766 0.16241524 0.17177474
000070 8f 86 34 3e 1f a6 16 3e dc 79 b0 bd 28 ca 18 3e
       0.17629455 0.14711808 -0.08616993 0.14920866
000080 58 22 af bd 18 64 13 3e 7d 68 af bd 13 50 51 be
       -0.085514724 0.14393651 -0.085648514 -0.20440702
000090 7a 76 a5 be 1d 69 af bd 6a d1 f5 3d 8d ee a8 3e
       -0.32316953 -0.08564971 0.12002833 0.329945
0000a0 c1 fc 67 bd 87 f4 8c bc 9d d5 98 be 29 f7 87 3e
       -0.05663753 -0.017206443 -0.29850474 0.26555756
0000b0 cf 98 d3 bd eb e5 d2 3d 49 d8 47 3d c9 dc 39 be
       -0.1033188 0.102977596 0.04879025 -0.18150629
0000c0 55 37 df bd 84 13 7e bd 89 24 a0 bd c1 94 8d be
       -0.108992256 -0.06203033 -0.078194685 -0.27652553
0000d0 28 37 55 3e 0c da ec 3d ac f1 22 3e ae 41 96 3d
       0.20821822 0.11565027 0.15912503 0.07336746
0000e0 f0 a7 a8 bd e2 4e af 3c 76 ec 74 3d 4f f8 19 3e
       -0.082351565 0.021399919 0.05979582 0.15036128
0000f0 f3 2b bc 3d 72 32 a5 bc 4a 24 66 3e 87 85 e3 bc
       0.0918807 -0.020165656 0.2247478 -0.027773632
000100 82 56 a9 be 92 e6 a4 be 41 85 9e 3d 7e c1 17 be
       -0.33073813 -0.3220716 0.0774026 -0.14819905
000110 5e 2e a5 be 35 07 53 be 26 a2 cc 3d d6 fc c9 3d
       -0.32261938 -0.20608218 0.09991865 0.09862678
000120 d5 e9 a6 3e 9f 15 95 3e b2 50 7f 3e 1f ad 7b 3e
       0.32600275 0.29118058 0.24933127 0.24577759
000130 df f0 23 3e 5d 9e 92 be 42 e0 8d be 66 cb 2b bd
       0.16009854 -0.28636447 -0.27710158 -0.041942023
000140 93 9f 58 be f8 ac 2e 3e ee 7f 9d be d5 6e 9d 3e
       -0.21154623 0.1705817 -0.30761665 0.3074862
000150 37 08 10 3c 62 90 63 3e 1b ba 8d 3e 39 94 6c be
       0.008791021 0.22223046 0.2768105 -0.23103417
000160 1a ab 81 3e c5 10 53 be 0f 22 87 bd 48 20 31 3e
       0.25325853 -0.20611866 -0.06598293 0.1729747
000170 be ed 91 be 48 f7 17 be b2 67 0d be c9 df fd 3d
       -0.28501695 -0.14840424 -0.13809088 0.12396199
000180 9a 3e a4 bd d9 a0 b3 3d 01 c6 a1 be 09 e0 a7 be
       -0.08019753 0.08770914 -0.31596377 -0.32788113
000190 07 6e 8e be 81 c9 1d bd 14 7a 0a be e2 8e 7c be
       -0.2781832 -0.038522247 -0.13523132 -0.2466388
0001a0 64 28 dd bd 6f 82 b7 3d 90 7b 60 3e 37 2f d0 3d
       -0.107987195 0.08960425 0.21922135 0.101652555
0001b0 fc e7 34 be 3b d3 45 3e 94 d0 a4 3d 45 17 93 3d
       -0.1766662 0.1931886 0.080475956 0.07182173
0001c0 bb 69 10 bd 63 3e 46 be 72 02 87 bd 7f 76 b2 bd
       -0.035257082 -0.19359736 -0.06592263 -0.087140076
0001d0 61 e8 5a be 47 31 1b 3e 1a 3c 70 3e 37 ac 83 be
       -0.21377708 0.15155517 0.23460427 -0.25717327
0001e0 26 68 94 be fe 5b 84 be 8f 64 37 3e 88 84 15 be
       -0.2898571 -0.25851434 0.17909454 -0.14601338
0001f0 c3 8a 09 3c d1 e0 82 be 14 be fa bc 73 76 40 3e
       0.0083949 -0.25562146 -0.030608214 0.18795185
000200 c5 ad 9d 3e 68 4a 84 3e d1 97 3e 3e 22 bd ca 3d
       0.30796638 0.25838017 0.18612601 0.098993555
000210 d5 86 aa be 14 4f af 3d 02 70 72 be 07 63 0c be
       -0.33305994 0.08560005 -0.2367554 -0.13709651
000220 18 79 91 be 0a f6 9c 3e cb 25 84 be 25 a5 56 be
       -0.284127 0.30656463 -0.25810084 -0.20961435
000230 55 e9 73 3e 1f 72 da bd 85 97 85 3e 52 29 35 bb
       0.23819478 -0.10666298 0.26092163 -0.0027643037
000240 f8 6c bf 3d f7 94 8f be 65 a5 bf bd 91 2e af 3c
       0.09346956 -0.2804334 -0.093577184 0.02138451
000250 91 92 cb bc 5a 5b 57 be 20 84 61 be 12 9e e8 bd
       -0.024850162 -0.21030942 -0.22023058 -0.113582745
000260 21 99 51 be a3 8c 1c 3e 43 d4 97 bd 5b 75 dd bd
       -0.2046857 0.15288024 -0.074135326 -0.108133994
000270 07 e5 8b be 35 0f 3a bd 28 8d 17 be bb b9 07 be
       -0.27323171 -0.04542466 -0.1479994 -0.13254444
000280 4d 11 45 3e 05 88 72 be 5b 80 7b bc 4a 4e e7 3d
       0.19244881 -0.236847 -0.015350427 0.11294229
000290 aa c2 77 3c 34 2b 8a 3d fa f5 67 be 88 55 2a be
       0.015122095 0.067465216 -0.22652426 -0.1663419
0002a0 05 f8 a5 be fc d8 85 3e d9 08 58 be b9 29 85 3e
       -0.32415786 0.26142108 -0.21097125 0.26008394
0002b0 80 68 9c 3e 5d 57 76 3e 95 8b a3 3e de 91 5c 3d
       0.30548477 0.24056764 0.3194243 0.053850047
0002c0 17 bf 2b 3e 24 27 a8 be 7c 78 51 3e e4 87 4e 3e
       0.16772114 -0.32842362 0.20456117 0.20169026
0002d0 43 40 cc bd b2 a6 a5 be 61 eb 84 bd 5b e4 54 be
       -0.099731945 -0.3235374 -0.064902075 -0.20790236
0002e0 66 13 91 be c1 9a 96 3e 65 74 1b 3d fb 51 31 3e
       -0.28335112 0.29414943 0.0379528 0.1731643
0002f0 e7 f3 a4 be 8e f4 a9 3e 5f 56 2b 3e 06 4c f2 3c
       -0.32217333 0.33194393 0.16732167 0.029577266
000300 8d d2 4b be 26 1f 76 3e 4f c2 3b bd 6b 20 a5 bd
       -0.19904537 0.2403532 -0.045839604 -0.08062824
000310 30 c6 10 3e b5 94 41 bd 92 22 14 be 13 71 ea bd
       0.14138103 -0.04726096 -0.14466313 -0.114473484
000320 73 2e bc bd 22 4f 09 3e 25 65 1d 3e 50 5e 5e 3e
       -0.09188547 0.13409093 0.15370615 0.21715665
000330 b3 1c 0f 3e e2 2c 40 3e 4c a5 d2 3d d1 89 9c 3e
       0.13975792 0.18767121 0.10285434 0.30573896
000340 8f 19 9b 3e 41 d2 9d be d3 df a2 be bb 37 9f be
       0.30292937 -0.30824474 -0.3181139 -0.31097206
000350 87 e8 a7 3e 36 6c 94 be 0a 6d 31 be 01 ad fd bb
       0.32794592 -0.28988808 -0.17326751 -0.007741571
000360 ab 03 57 3d ab cb b6 3b 5a 1f 3c 3e d2 74 5c 3e
       0.052493732 0.0055784783 0.18371335 0.21528938
000370 0b 09 eb 3d bf 0b b8 ba c6 b4 91 3e 9a 57 92 3d
       0.11476334 -0.0014041587 0.28458232 0.07145615
000380 9b 57 5c 3e 4b 02 8d be fe 3d 71 be ab b7 96 3e
       0.21517794 -0.27540812 -0.23558804 0.29437003
000390 14 d3 58 3e 33 3f 80 be ff 0c 51 bd 13 d8 06 3d
       0.2117427 -0.25048217 -0.051037785 0.03292091
0003a0 1c 5d 92 be ce f1 42 3e 9b a8 78 be ce 7d 11 3e
       -0.28586662 0.19037554 -0.24283068 0.14208147
0003b0 15 1d 14 be 07 e6 28 3e 1f 69 3d 3e ea 6c 1e be
       -0.14464219 0.16493998 0.18497132 -0.15471235
0003c0 e8 05 a9 be 19 ef 6c 3e 6f 72 ce bc 6a 6a 95 3e
       -0.3301232 0.23138084 -0.02520105 0.2918275
0003d0 b8 89 e0 bb c8 0f 69 bd e1 7a 42 3d 61 4d b8 3d
       -0.006852355 -0.056899816 0.047480468 0.08999134
0003e0 da 81 8a be 6e 79 df 3c 28 04 17 be c8 e8 c8 bd
       -0.27052194 0.027279582 -0.14747679 -0.098100245
0003f0 ec b9 57 be 47 f7 59 3e ba a7 47 be d4 58 a0 be
       -0.21067017 0.21285735 -0.19497576 -0.3131777

net.0.linear.bias f4 [256]
000000 f1 dd c5 be ed ce e9 3d 76 61 ab bd 95 48 c7 bd
       -0.3864589 0.11416421 -0.083681986 -0.09730641
000010 6f cd 13 3f aa 84 b2 3e dd 3a f6 3d 1b 07 ae be
       0.5773534 0.3486684 0.12022946 -0.33989796
000020 76 bb 0e be 48 dd 15 be 6b 64 f4 3e a6 aa 01 3f
       -0.13938698 -0.14635193 0.47732863 0.50651014
000030 d8 5a cb 3e f8 c0 c8 3e de b5 dd be 53 0f 96 be
       0.39717746 0.39209723 -0.43302816 -0.29308566
000040 85 30 80 3e a2 97 a5 3e 7a ea f5 be 63 1b 48 be
       0.25037017 0.3234225 -0.48030454 -0.19541697
000050 b3 f6 50 3e c6 ae 94 3e 39 b2 dd 3d 2a 26 0c 3f
       0.20406608 0.29039592 0.10825009 0.54745734
000060 75 d7 5e 3e a2 06 f6 be 71 cb c5 3e 8e c9 58 be
       0.21761878 -0.48051935 0.38631776 -0.21170637
000070 b2 39 af 3e f6 db 73 3d 11 df d1 be cd 16 f8 3e
       0.34223706 0.059535943 -0.409905 0.48454896
000080 86 c9 00 3f c6 ba 2d 3e 08 ce 10 bf 60 9b 8a 3e
       0.503075 0.1696578 -0.5656438 0.27071667
000090 5b 84 08 bf 35 d8 25 3e d7 a7 2e 3e 09 3f 30 be
       -0.5332696 0.16195758 0.17056213 -0.17211546
0000a0 c7 73 6e 3d 99 1b ba 3e eb 3f 2d be 81 93 0f 3f
       0.058215883 0.3634918 -0.16918914 0.5608445
0000b0 95 12 c4 3e c1 dd d4 3d 0f a3 15 3e 65 80 d3 be
       0.38295427 0.10393859 0.14612983 -0.41308895
0000c0 d6 92 d0 3e d8 82 85 be 9b cc 07 3f 9d 7e 9b 3e
       0.40737027 -0.26076388 0.5304658 0.30370036
0000d0 7d c1 38 be e4 66 ba 3e 18 4e ce be 64 92 f7 be
       -0.1804256 0.36406624 -0.40293956 -0.48353875
0000e0 5d 9e 4e be 48 fb a7 3c 7d 6c f1 be 1f 6c 08 bf
       -0.20177598 0.020505562 -0.47153082 -0.5328998
0000f0 3f d1 1b 3e c3 8c 13 bf 62 07 92 be 2b 55 c0 3e
       0.1521654 -0.5763666 -0.28521258 0.37564978
000100 76 b1 0f 3d 4c c1 e2 be 15 e4 bb be 82 06 bb be
       0.03508135 -0.442881 -0.3669745 -0.36528403
000110 ac 9f 8d be be cc 11 3f 43 eb bc be 45 a1 a5 be
       -0.27660882 0.56953037 -0.3689824 -0.323496
000120 60 af de 3e 8e cd dd be a7 d8 a0 3e 26 81 06 3e
       0.43493176 -0.43320888 0.31415293 0.13135204
000130 5b d7 86 be 88 5c 0c be fa 56 32 be 07 92 02 bf
       -0.26336178 -0.13707173 -0.17415991 -0.5100407
000140 06 1d d4 be 11 b3 84 be 0f 95 ee bd 55 e0 04 bf
       -0.41428393 -0.25917867 -0.116495244 -0.51904804
000150 26 7b 2f be a6 a1 eb be 65 78 e5 be 46 6c 95 be
       -0.17136821 -0.46021765 -0.44818416 -0.2918417
000160 a0 a0 6e bd 0b fb ef 3e 39 93 d5 be 19 f5 96 be
       -0.058258653 0.46871218 -0.41713884 -0.2948387
000170 dd 9f e6 3e 34 94 ed be 9c 95 ba 3e 07 4d 72 3d
       0.4504384 -0.46402133 0.36442268 0.05915549
000180 b7 41 ab be 03 70 92 3e 33 90 de 3e 48 81 b0 be
       -0.33448574 0.28601083 0.4346939 -0.34473634
000190 c0 76 0f bf 86 66 87 3e b3 0c 0e bd 1e fd 1b 3e
       -0.56040573 0.26445407 -0.03468008 0.15233275
0001a0 72 05 a0 3e 8b 93 a8 3e 16 f7 fd be a3 2b dd 3e
       0.31254154 0.32925066 -0.49602574 0.43197355
0001b0 87 1a ab bc 81 bc 3a be d1 a2 dc be bb f7 8c be
       -0.020886673 -0.18235971 -0.4309297 -0.27532753
0001c0 73 9f 09 3e 0d e5 c2 bc 48 55 10 3f ea 7e 02 bf
       0.13439731 -0.02379086 0.5638013 -0.50974905
0001d0 98 20 bc 3e e9 7a fe be 08 ab a6 3d 28 1f 25 be
       0.36743617 -0.49703148 0.0813809 -0.16125166
0001e0 70 78 99 be 6c ba 06 3f 53 19 c4 3e 5e 35 90 be
       -0.299747 0.5262821 0.3830057 -0.28165716
0001f0 f5 0d d4 3c 8d fa b2 be d7 5e 55 3e e8 14 86 3e
       0.025885561 -0.3495678 0.2083696 0.26187825
000200 ef dd 4f 3e df 8d ce 3e f7 fe 01 bf b3 80 0f be
       0.20299505 0.40342614 -0.5077967 -0.14013939
000210 17 c7 2b be 8b d1 8e be 92 ca e5 be 64 6a 02 bf
       -0.16775165 -0.27894244 -0.4488111 -0.5094359
000220 a4 c4 19 be 2f bd f9 3e 2d ff d9 be 9a b2 47 be
       -0.15016419 0.48777148 -0.42577496 -0.19501725
000230 75 f4 3c be 80 a8 ad be 25 c3 9f bd 32 99 c6 3d
       -0.18452628 -0.33917618 -0.07800893 0.096971884
000240 61 4d 37 3e 94 41 3e be 1e bf 6a 3d 63 d2 59 be
       0.17900611 -0.18579704 0.05731117 -0.21271662
000250 ef d3 74 3e d1 27 c4 3d 34 23 14 be c1 ef aa 3e
       0.23908971 0.09577907 -0.14466554 0.33386043
000260 f5 be 26 be 80 da a0 3e c5 09 6a 3e ce 6d fa 3d
       -0.16283782 0.31416702 0.2285529 0.12227975
000270 49 a8 41 3e 6d d3 e7 3e 37 7b 0e be 52 05 11 3f
       0.18911852 0.45278493 -0.1391419 0.56648743
000280 2e 89 0d bf e4 f0 83 3e 84 dc e7 3e 1e ea a4 3c
       -0.55287445 0.25769722 0.45285428 0.020131167
000290 61 d8 1c 3e 10 ba 98 be d8 7f 42 3e 4b 87 b8 3d
       0.15316917 -0.29829454 0.18994081 0.0901018
0002a0 90 cd 19 3e b4 a3 52 be be 26 07 bf ed d9 58 3e
       0.15019822 -0.2057026 -0.5279349 0.21176882
0002b0 a0 23 be be b5 10 b1 be 33 44 cb 3e 27 f4 38 be
       -0.37136555 -0.3458306 0.3970047 -0.18061887
0002c0 a6 5d 0b 3e c1 5b c7 3e 28 75 e0 bd 95 76 05 bf
       0.13609943 0.3893719 -0.10959846 -0.52134067
0002d0 6e 1a f6 3e ed 5e 00 be 26 22 c2 3e 76 80 92 bb
       0.4806704 -0.12536211 0.37916678 -0.00447088
0002e0 db 4b af 3e ae fd 09 bf e2 86 de bc fa f6 e8 be
       0.3423756 -0.5390271 -0.027163927 -0.45500928
0002f0 f5 a9 ee 3e 2b a2 90 3e b7 bd c0 3a d7 32 f6 3e
       0.46614042 0.28248724 0.0014704977 0.48085663
000300 49 93 2d be da a6 07 3f 6f a7 e4 3d 12 37 05 bf
       -0.16950716 0.5298897 0.11164748 -0.52037156
000310 d9 78 22 3d 19 e5 dc 3e cd 14 50 bd be e4 0f 3c
       0.03966603 0.43143538 -0.050801087 0.008782564
000320 3b c4 4a 3d 05 09 97 be f9 6e 0d bf a5 7c 0f bd
       0.049503546 -0.2949907 -0.55247456 -0.03503098
000330 60 28 81 3e 3d cc 18 be 17 01 c9 be 8f 12 0f 3f
       0.25226116 -0.1492166 -0.39258644 0.55887693
000340 85 c3 10 3e 2b 32 ce be f0 10 a0 be 06 a0 9a be
       0.14137085 -0.4027265 -0.31262922 -0.30200213
000350 e6 6e f0 3d 2f 75 9c 3e 8c fa 01 bf 04 2a ee bd
       0.11739902 0.30558154 -0.5077293 -0.116291076
000360 0b db b7 be de ce f4 3e 6f 9a 52 3e b7 7f 2f 3e
       -0.35909304 0.47814077 0.20566724 0.17138563
000370 74 29 07 3f 38 3f ad 3d 81 7c 18 3d c7 47 9b 3e
       0.5279763 0.08459324 0.03722811 0.303282
000380 c8 5d 86 3e 94 90 eb bd 29 48 14 3e 97 45 11 bf
       0.26243424 -0.115021855 0.14480652 -0.5674681
000390 6a 99 8e bc 8e 31 e1 3e d0 e3 a1 3e 5e 58 9a be
       -0.017407138 0.4398312 0.3161912 -0.30145544
0003a0 6b cb a9 be f2 c2 0e 3e 07 08 a9 3d 46 40 03 3f
       -0.33163008 0.13941553 0.08253484 0.5126995
0003b0 3b 0d 09 be 90 5c ea be 38 ac 77 be 4f 3b 86 be
       -0.13383953 -0.45773745 -0.2418679 -0.26217124
0003c0 10 e9 3d 3e 3a ca d0 be d4 53 f9 bb c1 4f ee be
       0.18545938 -0.40779287 -0.00760887 -0.46545222
0003d0 fa f0 c2 be 25 e7 13 bd 74 a8 03 3f 74 f5 01 3f
       -0.38074476 -0.03610911 0.51428914 0.50765157
0003e0 e7 8a 8c bd 17 a6 91 3e 01 a8 8a 3e e3 29 bb be
       -0.06862431 0.2844703 0.27081302 -0.36555395
0003f0 e5 a7 b3 3e b0 7c 0d bf 69 7d a1 be f9 4e b2 3e
       0.3508903 -0.55268383 -0.31540993 0.34825876

net.1.linear.weight f4 [256, 256]
000000 53 4d f1 ba 89 19 0f 39 0d cf 3c bb 8a 70 e6 b9
       -0.0018409885 0.00013647055 -0.0028809935 -0.00043952867
000010 93 69 5a bb 1d 1b 61 bb df 19 1e bb 9c 94 d1 3a
       -0.0033327087 -0.0034348436 -0.0024124307 0.0015989724
000020 a7 5d 65 3a c7 ff 34 3b ef 37 7f 3b f6 87 99 bb
       0.0008749612 0.0027618275 0.003894325 -0.0046853973
000030 8a 16 ef 3a a2 4d 0e ba a8 44 31 3a 7b 37 86 3a
       0.001824097 -0.00054284383 0.0006762245 0.0010239923
000040 de c0 05 bb 61 05 5e 3b 16 f8 41 bb d9 c7 00 39
       -0.0020409147 0.0033877718 -0.0029597334 0.0001228148
000050 2e f6 f1 3a ac c8 e2 3a f1 ab 9e 3a 67 04 8b 3a
       0.0018460208 0.0017302237 0.0012105686 0.001060617
000060 b8 e0 29 b9 51 0d 80 ba 11 5b 54 3b 24 96 ac 39
       -0.0001620081 -0.0009769594 0.0032402913 0.0003291826
000070 18 c3 4c bb 4a 1a 9e 39 99 a9 9c 3b 62 62 2d bb
       -0.0031244215 0.00030155695 0.00478096 -0.0026456346
000080 91 7e 80 3b d7 76 a8 ba d4 6d a0 bb 39 19 8c 3b
       0.003921338 -0.00128528 -0.004895905 0.0042754677
000090 cd 5a 3c bb 8b 09 2b 3a f6 3f a2 bb 45 ad 8e 3b
       -0.0028740645 0.00065245543 -0.0049514724 0.0043541514
0000a0 46 6f a5 bb 6c 53 23 bb 60 85 71 3b ef 06 b8 bb
       -0.005048665 -0.002492155 0.003685318 -0.005616061
0000b0 34 23 33 bb 2a 3b 3a 3b 93 9d f1 bb 55 43 dc ba
       -0.0027334215 0.0028416612 -0.0073735206 -0.0016804734
0000c0 a0 dd 91 3a 21 c4 89 3b 1c a2 02 3b dc 54 18 3b
       0.0011128671 0.0042042886 0.001993305 0.002324394
0000d0 81 13 c8 3a 96 69 6e ba 8a 8c 74 3a ff 89 cd ba
       0.0015264602 -0.0009094713 0.0009328803 -0.0015681385
0000e0 24 73 8b 3a ce b8 74 bb 88 02 38 ba a5 0f b2 bb
       0.0010639173 -0.0037341597 -0.000701942 -0.005433994
0000f0 73 b6 a2 bb 44 35 c7 3b 66 24 07 b9 e6 6d 86 bb
       -0.0049655973 0.006079348 -0.00012888163 -0.0041024564
000100 65 e2 53 bb e4 0a c7 3b 18 7c 97 bb 73 4c d4 b9
       -0.0032330987 0.0060742963 -0.0046229474 -0.0004049275
000110 09 4d 1e 3b 54 5f 8a 3b e9 a5 7e bb 37 3e 97 3b
       0.0024154803 0.00422279 -0.0038856214 0.004615571
000120 d1 6d f4 b9 99 78 5f b9 8a 01 5e 39 5b 76 e4 bb
       -0.00046621126 -0.00021311863 0.00021172143 -0.006972117
000130 12 e8 24 bb af f8 40 bb 8d f7 01 bb e2 f4 36 3b
       -0.0025162739 -0.0029445102 -0.001983139 0.0027916958
000140 09 63 06 bb 90 47 92 ba 5a 93 60 bb a2 00 5d 3a
       -0.0020505807 -0.0011160243 -0.0034267516 0.0008430575
000150 ba 24 0d bb b3 94 f1 3a 33 b7 16 bb f6 4a 25 bb
       -0.0021536783 0.0018431157 -0.002299738 -0.0025221682
000160 5a 88 85 3b 74 e6 bc ba ce 4c 86 3b 0a 6a ae 3b
       0.0040750923 -0.0014411942 0.0040985113 0.0053226994
000170 2a 71 93 ba 99 68 7b 39 22 33 09 3a 92 e6 51 bb
       -0.0011248935 0.00023976191 0.00052337546 -0.00320283
000180 82 09 0e bb 46 13 a6 3b 13 13 b9 3b 02 96 a3 39
       -0.0021673148 0.0050682155 0.005648026 0.00031201547
000190 ac d7 7f 3b a3 75 e8 3a 27 3f f3 b9 9c c2 a0 3a
       0.0039038463 0.0017735254 -0.00046395624 0.0012265029
0001a0 14 2b 39 3b 4d 94 3a bb 92 f3 2f bb 9f f3 19 bb
       0.0028254436 -0.0028469742 -0.002684806 -0.0023491157
0001b0 b9 5f 91 ba 67 d9 dc 3a c4 46 8f bb 09 04 d9 3a
       -0.001109115 0.0016849459 -0.0043724496 0.0016556989
0001c0 21 bd b1 ba b1 da 8f 3b d3 7a 55 3b e4 d2 ef 38
       -0.0013560393 0.0043900837 0.003257443 0.000114356895
0001d0 1c 99 36 bb 34 68 f3 bb 82 4a 5b 3b 76 f5 c7 3b
       -0.0027862256 -0.0074281935 0.0033461158 0.0061022593
0001e0 25 a6 a9 bb 0f ac dc 3a 1a d2 80 3b 4f e7 88 bb
       -0.0051772767 0.0016835945 0.003931296 -0.0041779648
0001f0 cc c1 63 3b 7b 48 82 3b 2c 9c 93 3b 11 13 3f 3a
       0.0034752963 0.0039759255 0.004504701 0.0007288913
000200 ec ba d2 ba 6f 5a b5 ba a8 1d 09 bb cd 48 8e ba
       -0.0016077436 -0.0013836155 -0.0020922218 -0.0010855437
000210 e8 2d 67 3b 5d 95 4c bb e6 df 9f 3b 5b be e8 39
       0.0035275165 -0.0031216957 0.0048789857 0.00044392314
000220 b3 8a 47 ba 3b 28 29 bb f5 49 84 ba 63 ae c8 3b
       -0.00076119154 -0.0025811333 -0.0010092842 0.006124304
000230 12 fe d5 3a 52 0f 69 3a 7d 0b 39 3b 84 8d 3a b9
       0.0016326329 0.00088905275 0.0028235607 -0.00017791061
000240 24 09 a3 bb 7e 27 c7 3b 4d c0 74 b9 b0 64 e6 ba
       -0.004975455 0.006077706 -0.00023341291 -0.0017577615
000250 8e fb 6a 3b fc 95 85 bb 50 d5 26 38 9e 03 3a 3b
       0.0035855505 -0.0040767174 3.9776147e-05 0.0028383504
000260 5a 4e 66 3b be 0f 9d bb d3 d4 db ba 83 3e d0 ba
       0.0035141916 -0.0047931364 -0.0016771801 -0.001588777
000270 6a 50 b8 3a bc a3 a4 bb 6f 4a a1 3a 9e c6 24 bb
       0.0014062051 -0.0050244015 0.0012305508 -0.00251428
000280 b3 d0 00 b9 b6 a0 cc bb 2f 54 ad 3b a5 90 53 bb
       -0.00012284778 -0.006244744 0.0052895765 -0.003228226
000290 bb 42 46 3b 3c ae 6a 3a dc e3 b0 ba a1 18 bd 3b
       0.0030252177 0.00089523545 -0.0013495642 0.0057707583
0002a0 28 1d 9c ba 02 2c 25 bb 8e 98 19 3b 26 96 0c 3b
       -0.0011910545 -0.0025203233 0.0023436877 0.00214518
0002b0 3a 76 14 3b fb 90 b2 bb c0 dc a8 ba e5 c2 4c 3b
       0.0022653476 -0.005449412 -0.0012883171 0.0031244096
0002c0 a9 2c 7e bb 32 d3 77 bb 27 9b 00 bb 86 ea fd bb
       -0.0038783944 -0.0037815091 -0.0019623728 -0.0077489046
0002d0 8d 97 9b ba 17 5b 3a bb 45 a0 93 3a 2e e7 b1 bb
       -0.0011870727 -0.0028435641 0.0011262974 -0.00542917
0002e0 16 d4 80 3b bb 57 4a 3b 6e 12 95 3b 00 b9 2e bb
       0.0039315326 0.0030875045 0.004549316 -0.0026660562
0002f0 77 94 96 3b 49 03 c7 bb 63 35 cf 3b 56 63 2e bb
       0.004595335 -0.0060733897 0.006323503 -0.0026609502
000300 71 04 d4 ba fb 18 c2 3b 2a 48 46 b8 63 dc 69 bb
       -0.001617564 0.005923388 -4.7274087e-05 -0.003568434
000310 7f a3 ed 3a 4d ce 36 bb 6e 8e 16 ba 06 a6 2e 3b
       0.0018130391 -0.002789396 -0.00057432696 0.002664925
000320 57 61 86 39 a6 2d 14 3a f1 b6 93 3b 5c 85 93 3b
       0.00025630996 0.0005652554 0.0045078923 0.0045019817
000330 57 ce c4 bb d3 dc 0c bb 31 6b 29 bb ed f0 40 3b
       -0.006006043 -0.0021493926 -0.0025851245 0.0029440478
000340 de 80 dc 3a 2a 80 0c 3b 1a 13 44 3b d9 1a 9b 37
       0.0016823073 0.0021438696 0.0029918612 1.8489942e-05
000350 a1 c4 b2 3b 1e 25 85 3b 24 25 0d 3b c1 f3 40 bb
       0.005455569 0.0040632626 0.002153703 -0.0029442164
000360 30 33 6f bb 79 7c 75 3b 08 30 14 ba 0b c1 ed 36
       -0.0036499016 0.0037458225 -0.0005652909 7.0856236e-06
000370 c2 9a 0f 3b da b1 ae 3b 3f 28 d5 3a b0 a8 8e bb
       0.0021912311 0.00533126 0.0016262605 -0.004353605
000380 59 9e 9c 3b 4a cf 5a 3b 30 50 36 bb 7d 0d aa bb
       0.0047796187 0.0033387714 -0.0027818792 -0.005189596
000390 94 bc c6 3b 41 68 e7 b9 9f cd 1e bb 23 44 06 3b
       0.0060649607 -0.0004413743 -0.0024231446 0.002048739
0003a0 db c2 51 3b 8c af b2 3b eb 3b ce 3a 66 43 39 3b
       0.0032007012 0.0054530557 0.001573441 0.0028268932
0003b0 bc 89 0f bb a2 d3 bd bb e1 16 c5 bb 4d 15 63 bb
       -0.0021902164 -0.005793051 -0.0060146903 -0.0034650147
0003c0 7e 3d fd b9 9e 42 a0 bb eb 05 6e ba d5 39 fc ba
       -0.00048301736 -0.004890754 -0.00090798613 -0.001924331
0003d0 d5 6e 38 3b 9d 50 a1 ba 79 69 4d b6 36 e9 be 3a
       0.0028142233 -0.001230735 -3.0608774e-06 0.0014565352
0003e0 9a 92 63 bb 80 8c 72 3b f4 61 4d 3b 13 94 3f 3b
       -0.0034724833 0.0037010014 0.0031338902 0.0029232546
0003f0 98 0c 4e ba e0 12 4b 3b 9a 6e dd ba f3 a3 b5 ba
       -0.0007860153 0.0030986592 -0.0016893924 -0.0013858065

net.1.linear.bias f4 [256]
000000 34 fb 9b bb 38 33 22 3d ac 5d 87 3b 83 06 16 bd
       -0.0047601704 0.039599627 0.0041310396 -0.036627304
000010 bf 4f 35 bd 3b b1 f3 3c 28 59 88 3c fe 99 d4 38
       -0.044265505 0.029747596 0.016644076 0.00010137631
000020 3c 4b 65 3d e5 3f 38 bc 76 4d b6 bc 42 4a 9e bb
       0.055979952 -0.011245702 -0.022253733 -0.0048306296
000030 3b 85 e2 3c 52 76 16 bd 3b 63 7e 3d 3c cf 4b bb
       0.02765142 -0.036733933 0.062106352 -0.0031098863
000040 4b 63 d6 bc e7 29 5e 3d ff 91 9c bc e6 0d 45 bc
       -0.026170393 0.05423918 -0.019112585 -0.012027239
000050 76 a7 6b 3d f7 cd 5a bd 50 f6 37 bd ac c7 0a bb
       0.05753275 -0.05341908 -0.044912636 -0.0021176143
000060 04 7a e0 3b a5 2a 6b bd 07 52 6f 3d b1 94 24 bc
       0.006850483 -0.057413716 0.058427837 -0.010045216
000070 e5 37 27 3d b7 64 e3 bc d0 d9 d4 bb 01 d7 06 3d
       0.04082479 -0.027757986 -0.006495692 0.032919887
000080 41 b2 74 bd eb 43 05 bd 56 14 0c 3d b0 4e 05 bd
       -0.05974031 -0.032535475 0.03419908 -0.032545745
000090 ee ea 1b 3d 7d b5 4d 3d 12 38 0f bd 12 b3 4c 3c
       0.038065843 0.05022191 -0.034965582 0.012493866
0000a0 22 cc 06 3d 41 47 05 3d 45 5e d0 bc d7 b6 44 3b
       0.03290952 0.032538656 -0.025435576 0.0030016208
0000b0 69 07 57 bd 02 a7 f8 bb 9b 04 4a bd 78 06 0e 3d
       -0.0524973 -0.0075882683 -0.0493208 0.034674138
0000c0 b5 14 28 3d e8 7a 47 3d 48 5d 16 3d 59 25 14 bd
       0.041035373 0.048701197 0.036710054 -0.03616843
0000d0 33 51 aa b9 31 a6 71 3d 21 7a 67 3d b8 1c 3a 3d
       -0.00032485425 0.058996383 0.056512956 0.045437545
0000e0 b6 fd af 3c 07 70 0a bd 52 e1 0d 3b 6b 7f 72 3b
       0.021483283 -0.033798244 0.0021649194 0.0037002217
0000f0 de d0 45 bc 7e 06 04 bd 87 5e 08 bc 13 0c c7 bb
       -0.012073724 -0.032232754 -0.008323318 -0.0060744374
000100 15 1a 93 3c c3 8a 5f 3d 85 d1 b4 3c f2 30 43 3d
       0.017956773 0.054575693 0.022072563 0.0476541
000110 cb c7 37 3d 66 1c a7 3c 83 8b cc 3c ae 16 67 3d
       0.04486827 0.020399284 0.024968868 0.056418113
000120 d2 6a 2f bd 1a 8f 17 3d d4 0d 3b 3d 67 c8 12 3d
       -0.04282648 0.037001707 0.045667484 0.03583565
000130 b9 6b 29 bd 81 77 3d bd fd 0c 2e 3d d5 d2 55 3b
       -0.041362498 -0.046256546 0.042492855 0.0032626886
000140 8a 08 74 3d c8 f9 64 3d b4 b0 2d bb fd f0 77 3d
       0.059578456 0.055902272 -0.0026503028 0.06053256
000150 3b 2c be bc 7e 07 4d bd d7 3c 7b 3c 93 12 e3 bc
       -0.02321445 -0.050055973 0.01533433 -0.027718818
000160 12 94 98 bc f1 4d 4e 3d 0e f2 12 3d 75 f6 40 bd
       -0.018625293 0.0503673 0.035875373 -0.04711004
000170 03 b1 23 bd 75 48 0c 3d a2 44 22 3d db 8a 75 bd
       -0.039963733 0.034248788 0.039616235 -0.059946876
000180 c5 bd 05 bd 6f 70 2e 3d cd a6 52 3d 21 d5 88 bc
       -0.03265168 0.042587694 0.051428605 -0.01670319
000190 df 10 5b 3d 4e 8e 78 bd 12 45 29 3d e5 08 1e bc
       0.053482886 -0.060682587 0.041325636 -0.009645675
0001a0 fb 4a 02 bc 1a 3a 15 3a de cc 15 bd e2 2b 70 bd
       -0.007952447 0.0005692557 -0.03657233 -0.0586356
0001b0 df cb 4b 3d a7 b2 92 3c aa 87 2f bd 50 4e 58 3d
       0.049754974 0.017907454 -0.04285399 0.05280906
0001c0 2e 1c 85 bc ce ba 46 bd 9c 1b a9 3c 81 8f 77 bd
       -0.016248789 -0.048517995 0.020643048 -0.06043959
0001d0 f4 7d 58 bd 3d e1 12 3d df 48 d4 3c 7c 9a 74 bd
       -0.052854493 0.035859335 0.025913654 -0.05971764
0001e0 9a 73 2a bd 32 8e f2 ba 37 6f ea bb 04 9f a5 3c
       -0.041614152 -0.0018505512 -0.007154371 0.020217426
0001f0 fc d6 e4 3b 94 a6 f0 3c d9 92 7c bd ae 8c 28 3d
       0.006983636 0.029376306 -0.061663482 0.041149788
000200 33 79 32 bc 27 21 84 bc 46 44 56 3b 2a e7 5c bd
       -0.010893154 -0.01612909 0.0032694503 -0.053931393
000210 61 d9 06 3d c9 61 74 bd bb 5e bd 3c be b3 81 3d
       0.032922152 -0.059663568 0.02311646 0.06333111
000220 a4 90 05 bd 97 5a 10 3d 28 bf 6f bd 1c 77 3d 3d
       -0.032608643 0.035242643 -0.05853191 0.04625617
000230 2c aa 33 3d b7 a7 67 3d 51 05 8d 3c 7b de 44 3d
       0.04386346 0.05655643 0.01721445 0.048063736
000240 02 18 30 3d fa f0 c1 bc 57 a5 3d 3d 27 66 a7 ba
       0.042991646 -0.023674477 0.04630026 -0.0012771533
000250 89 30 0c 3b 23 91 55 bd 88 75 e0 bc 78 9c 95 bc
       0.0021391234 -0.052140366 -0.027399793 -0.018263087
000260 f1 19 f2 3c ad e9 4a 3d d6 3b 67 bd 4c 5b 1a bd
       0.029553385 0.049539257 -0.05645355 -0.037684724
000270 98 46 c9 bb 32 e1 2b 3d 8e a2 01 bd 4a b2 07 3d
       -0.0061424486 0.04196281 -0.031649165 0.033129014
000280 5e 3e 26 3d 03 f7 24 bd 1b 94 71 3c fd 49 f2 bc
       0.04058682 -0.04027463 0.014744784 -0.029576296
000290 b4 d6 68 bc fb bc 02 3d 5c 85 5e bd 53 72 73 bd
       -0.014211345 0.031918507 -0.0543264 -0.0594352
0002a0 d5 4b 06 bc 95 21 b5 bc 21 98 c1 bc 23 89 ab 3b
       -0.008196791 -0.02211074 -0.023632111 0.005234854
0002b0 76 84 16 bd 05 db c1 3c c2 ee 12 bc f3 6b 1a bd
       -0.03674742 0.023664007 -0.008968057 -0.037700605
0002c0 74 59 1f bd 5e 7b 92 bc 71 cc ed 3c 63 73 01 bd
       -0.03890367 -0.017881092 0.02902815 -0.031604182
0002d0 1a bf 2b 3c f1 6b c5 bc 14 10 13 bd 27 7e 6a 3d
       0.010482574 -0.024099322 -0.035904005 0.057249215
0002e0 64 c7 88 3c 19 7e b2 bc 6c 26 f6 3c cf 56 0e bc
       0.01669664 -0.021788644 0.030047618 -0.008687689
0002f0 33 f8 f0 3b 38 f4 70 3d e2 ed ba 3b ff ba 68 3b
       0.0073538064 0.058826655 0.0057046274 0.003551185
000300 60 96 33 3c 12 27 09 bd b1 93 c3 3c 47 11 f0 3b
       0.010961145 -0.033484526 0.023874136 0.0073262784
000310 c7 a7 53 3d 86 dc 17 3d e5 07 cc 3b af 66 6c 3d
       0.051673677 0.037075542 0.006226527 0.057715114
000320 cf 29 6e 3d 46 76 c6 bc 7d 78 c3 bc a2 84 d2 3c
       0.05814534 -0.024226319 -0.023861164 0.02569801
000330 c4 64 05 3d e1 44 b8 3c f8 73 ac 3b 7c dd 98 3c
       0.0325668 0.022493782 0.005262848 0.0186603
000340 19 70 a2 bc 3b 9b c2 3c 80 f3 8d ba a2 c4 4c 3d
       -0.019828843 0.02375566 -0.0010830015 0.04999221
000350 cb 10 07 3b b1 00 cf 3b 15 6d db 3a 66 6a 9d 3c
       0.0020609375 0.006317221 0.0016740883 0.019215774
000360 95 01 cd 3b e5 bc 8d 3c 98 37 d9 3c 72 0f 11 3b
       0.006256292 0.017301986 0.026515767 0.002213445
000370 71 db 0c bd 83 4a 02 bd e7 a3 a9 3c 57 11 ab 3b
       -0.034388963 -0.03180934 0.020708038 0.005220573
000380 54 5f 3b 3c c4 29 f3 bc 52 45 ce 3c 0b 64 a1 3c
       0.011436302 -0.029683001 0.025179539 0.019701025
000390 13 58 04 3c e1 54 7a 3d a2 4a 4a bc 07 59 2d 3c
       0.008077639 0.061116103 -0.012346895 0.010580308
0003a0 ce 7f 09 bd 7c a6 3d 3d 05 d3 31 bd 26 2b 79 bc
       -0.03356915 0.04630135 -0.043414135 -0.015208041
0003b0 85 ca 17 bc 43 06 74 3d 3c e1 5a bd b7 92 47 bc
       -0.009264593 0.059576284 -0.053437456 -0.012180976
0003c0 02 9b 9c ba ce a5 77 bd ba 8d 34 bd a9 e8 34 3d
       -0.0011948051 -0.060460858 -0.044080473 0.044167195
0003d0 be af 34 bd f0 8a f0 3c 0f 14 09 bd b6 5a c7 3c
       -0.044112913 0.029363126 -0.033466395 0.024335247
0003e0 b0 04 08 3d 7f 35 3c bd 15 82 4e 3b 1d f4 7d bc
       0.033207595 -0.045949455 0.003151064 -0.015500096
0003f0 04 29 6d 3d 7b fb 2b bd 5e b4 45 bc d0 fe 32 bc
       0.057900444 -0.041987877 -0.012066929 -0.01092501

net.2.linear.weight f4 [256, 256]
000000 b2 b5 df 39 12 8a 7b 3b 17 19 00 3c 9f 53 00 b9
       0.00042669248 0.0038381857 0.007818482 -0.00012238183
000010 8c cd 28 bb 6c 42 2a bb 82 cf 8d bb 11 a3 4b bb
       -0.002575728 -0.0025979532 -0.0043277154 -0.0031072537
000020 47 88 27 b9 63 b9 1e 3a 05 f6 f2 b8 5e 70 5c bb
       -0.00015977128 0.00060548465 -0.00011585284 -0.0033636312
000030 6a f0 dc 3b ca 37 e1 bb 1e 94 96 3b 69 d5 e8 3b
       0.006742527 -0.0068731057 0.0045952937 0.0071055186
000040 7e d1 71 bb b6 43 c1 39 cb 43 ef 3a 47 1c 17 bb
       -0.0036898549 0.00036862277 0.0018254457 -0.0023057626
000050 02 9d 4b 3b 4d 3c 57 3b 3e c7 b0 bb 5e c1 38 bb
       0.0031068926 0.0032842339 -0.0053948453 -0.0028191428
000060 7c 43 b4 3b 3e 26 3a bb 1c c1 d9 3b a0 cd a3 bb
       0.005501209 -0.0028404142 0.006645335 -0.0049988776
000070 48 3a 40 3b a9 0a 91 3b 02 a2 34 39 b2 35 a2 3b
       0.0029331613 0.0044263196 0.0001722649 0.0049502486
000080 c2 11 cf ba ed e4 af bb 86 23 35 3b fb 50 c2 3b
       -0.0015798139 -0.0053678663 0.0027639582 0.005930064
000090 cd b9 31 bb cc b8 f8 3b fb cb 0b bb e9 f9 20 bb
       -0.0027118803 0.007590389 -0.0021331299 -0.002456302
0000a0 1d e5 b5 3a 03 0b 46 3a 89 e8 78 3b 56 b0 3a bb
       0.0013877485 0.00075547415 0.0037980399 -0.0028486452
0000b0 1e a3 cc 3a 56 99 08 3b 7f 18 ab bb c2 f7 22 3b
       0.0015612578 0.0020843348 -0.005221426 0.0024866913
0000c0 42 09 8a 3b 04 78 09 3b 60 20 5a bb 2d 0b 96 3b
       0.0042125294 0.0020976076 -0.0033283457 0.004578969
0000d0 a5 79 c9 3b 6e a3 98 bb 9d fb 2e bb bd 66 25 bb
       0.0061485344 -0.004658154 -0.0026700266 -0.0025238239
0000e0 4e 93 3a 3b ee 4d 35 3b 69 3d 05 bc 6f 55 84 bb
       0.0028469148 0.0027664858 -0.008132317 -0.004038505
0000f0 19 c7 1c 3b 43 d5 bf ba 2d ae 98 bb 93 bd 0b 3b
       0.0023922382 -0.00146357 -0.0046594352 0.0021322712
000100 03 55 6d 3a 04 38 43 3b 22 2e 56 3b 84 52 f4 3a
       0.00090535 0.0029788027 0.0032681306 0.0018640314
000110 65 a7 9b bb 29 d6 ad bb 83 fc d7 39 e7 50 41 bb
       -0.0047501796 -0.005305071 0.00041196131 -0.0029497684
000120 ea 51 5c bb 29 4f 87 3a e0 47 3e bb eb b7 02 3b
       -0.003361816 0.0010323274 -0.002903454 0.001994605
000130 21 4f 7e 3b a6 0d 21 3b 73 4f d3 ba b1 05 4e bb
       0.0038804489 0.0024574785 -0.00161217 -0.0031436498
000140 fb c2 71 bb 7b 90 2e 3b c3 f4 57 bb e4 3e 03 39
       -0.00368899 0.002663641 -0.0032952286 0.00012516562
000150 cb f5 a8 b8 97 6f be 3b 8e e9 1f 3b 61 d2 94 ba
       -8.056647e-05 0.0058116424 0.0024400684 -0.0011354202
000160 af 91 f6 b9 d7 59 0f bb 2f 2e d4 3a 24 e6 be 3b
       -0.0004702932 -0.0021873617 0.001618808 0.0058257747
000170 24 1d 4c 3b 47 17 d0 3b 2c b1 29 ba 0f e3 f2 39
       0.00311453 0.006350431 -0.0006473239 0.0004632701
000180 76 1a 68 ba fa 94 21 bb 21 c8 aa 3b 7d 0a 8f bb
       -0.00088540406 -0.0024655447 0.0052118455 -0.004365264
000190 c7 0b 64 3a f4 53 8f bb 8d 10 c4 b9 f5 a5 00 bb
       0.0008699265 -0.0043740217 -0.00037396364 -0.0019630168
0001a0 6c 34 20 bb 7b a8 0d bb 5c a5 7b 3b 07 9b ea bb
       -0.0024445308 -0.0021615315 0.0038398122 -0.007159594
0001b0 b7 76 9c b9 7c df d7 b9 c5 9e 62 bb 72 74 df 3a
       -0.00029843088 -0.00041174504 -0.0034579497 0.0017048253
0001c0 d1 69 13 3b db ad 13 bb 3e 79 bd bb 83 05 c3 ba
       0.0022493491 -0.0022534046 -0.0057822755 -0.0014878962
0001d0 f8 ae 06 ba 48 26 86 3b b7 19 25 3a dc 93 62 3b
       -0.0005137767 0.004093919 0.00062980823 0.0034572994
0001e0 6a bb 88 ba b0 19 96 3b a4 bb 86 bb d2 86 47 3b
       -0.001043183 0.004580699 -0.004111724 0.003044535
0001f0 db d8 55 bb 6c 0b e7 3b 05 ed 34 3b 84 c4 c2 3a
       -0.0032630477 0.007050922 0.0027607095 0.0014859592
000200 04 aa 6e 3b a3 9f 59 3b 28 48 88 bb b1 ef 76 ba
       0.0036417255 0.0033206723 -0.0041589923 -0.0009419872
000210 ea 17 f2 3a 9f 5e 6b bb e3 a8 8a bb ba c4 c9 3b
       0.0018470262 -0.0035914553 -0.0042315586 0.006157485
000220 e4 17 52 3b 82 c4 86 3b e2 6e 75 bb db 46 51 3b
       0.0032057697 0.004112781 -0.0037450125 0.0031933102
000230 27 00 e1 ba 5a f4 3c 3a 05 d2 de b8 e4 31 86 bb
       -0.0017166183 0.0007208042 -0.00010624904 -0.004095303
000240 32 95 dd b9 bf 42 c2 bb 99 4d 8c 3b 0b c9 1e bc
       -0.00042263564 -0.005928367 0.0042817113 -0.009691487
000250 7c 6b 66 3b 32 b9 dc ba 4f f3 a9 bb 86 11 8c 3b
       0.003515928 -0.001683986 -0.0051864753 0.00427455
000260 56 44 08 bb f2 92 0d 3c 2a 22 1b 3b e7 3c 83 3a
       -0.0020792685 0.0086409915 0.0023671486 0.0010012657
000270 5b 41 75 3a 63 be b3 3a 8b 53 96 b8 d4 4e 9e 3b
       0.0009355747 0.0013713356 -7.1681185e-05 0.0048311744
000280 6d b1 b0 bb 6d 36 aa bb 93 62 23 bb 3c 9a a9 3b
       -0.0053922446 -0.0051944763 -0.002493058 0.005175857
000290 18 4f 9c bb 80 bc c2 3a 8a 3b 3c bb 56 58 c4 3a
       -0.004770171 0.0014857203 -0.0028722011 0.001497994
0002a0 33 0f 99 ba ad ff 8e 3b 9d 9f f5 bb c6 41 4f ba
       -0.0011677503 0.004363975 -0.007495834 -0.00079062243
0002b0 42 23 86 3b 55 03 2f bb b9 8b d5 bb 01 57 c4 3b
       0.0040935585 -0.0026704867 -0.0065169004 0.005991817
0002c0 dd 4a 0b 39 bd 2a d7 3b c1 6d 99 3a a0 ef c1 ba
       0.00013283962 0.006566374 0.0011705683 -0.0014796145
0002d0 37 7f af b9 55 c9 c0 ba 4c b2 a9 3b 7d ab b4 3a
       -0.00033473384 -0.0014708439 0.0051787253 0.0013784018
0002e0 ac 6d e2 3a 3a de 9d 3a 25 b4 4f 3b a5 17 7f 3b
       0.0017275116 0.0012044378 0.0031693068 0.0038924005
0002f0 4a f1 eb bb b9 77 2a 3b 13 9a 5d ba f6 7a a9 3a
       -0.0072003948 0.0026011302 -0.000845344 0.0012930322
000300 b0 7d 3c 3b 30 a7 bc bb 5b b5 aa ba 22 dd 34 3b
       0.002876144 -0.005757235 -0.0013024019 0.0027597626
000310 75 d4 0b 3a da 83 74 3b 8d f3 5d 39 5e b0 e5 3a
       0.0005334088 0.0037310035 0.00021166932 0.0017523875
000320 74 aa 9c 3b 6b 36 06 bc 0b 3e 0f ba db b6 db 3b
       0.004781062 -0.008191685 -0.0005464262 0.0067051477
000330 ea 32 b2 bb 49 2f 15 ba d8 c7 83 3b db 3e 88 bb
       -0.0054381983 -0.0005690945 0.004021626 -0.0041578836
000340 1b 53 75 bb 51 ae 33 bb 2c 2b 96 bb f1 bc 8c b9
       -0.0037433568 -0.0027417133 -0.004582783 -0.00026843653
000350 03 fa 3a bb 94 84 54 bb 3c b3 89 ba c2 77 04 3c
       -0.0028530366 -0.0032427656 -0.0010505687 0.008085193
000360 32 14 3a 3a c3 f0 37 ba 01 75 a6 39 b8 52 be 3b
       0.0007098346 -0.0007016772 0.00031749162 0.0058082007
000370 df 48 69 3a 2f 18 a3 ba c7 90 0a 3b 77 a3 20 3c
       0.0008899103 -0.001244312 0.0021143423 0.009804598
000380 03 24 77 3a 3d e8 e1 3a 21 5d 18 3b 44 75 19 3b
       0.00094276684 0.001723535 0.0023248869 0.0023415843
000390 b9 51 cb ba 50 ee 5b 3b c5 4b ed 3b 89 1d 8e 3b
       -0.0015512026 0.0033558793 0.0072416984 0.004337017
0003a0 7f 61 95 3b 60 02 56 3b d9 83 24 bb 95 c7 77 bb
       0.0045587416 0.0032655224 -0.0025103001 -0.003780817
0003b0 d7 bc 3b 3c c8 79 76 3a 76 ce cd 3a 4f ee 4f ba
       0.011458597 0.0009402302 0.0015701789 -0.0007931934
0003c0 e3 ef b0 bb 3b 2e ce bb 9d 02 ce 3a b8 e0 8f 3b
       -0.0053996905 -0.006292132 0.0015717332 0.0043908022
0003d0 0e 8e 5e 3b ad 44 b0 3b 61 93 58 bb bf 3b 1f 3b
       0.0033959183 0.0053792805 -0.003304683 0.0024297086
0003e0 cc 0b 67 3b 36 41 13 bb c8 e1 2b 3b 2b b7 11 b9
       0.0035254834 -0.0022469289 0.0026227105 -0.00013896513
0003f0 ca 41 86 bb f2 56 36 3b 0c 7f 8e b9 7b 76 87 bb
       -0.004097198 0.002782282 -0.00027179008 -0.004133997

net.2.linear.bias f4 [256]
000000 0b 8f 79 3c 36 49 f8 bc 66 0c 49 bd 5b b4 00 3d
       0.015231858 -0.030308347 -0.04908409 0.031422
000010 d9 2f 39 bd db 67 81 bd 9c e7 65 bd be 7b f0 bb
       -0.045211647 -0.06318637 -0.056129083 -0.00733897
000020 43 50 48 3d de d0 eb 3b e2 8f 2a 3c 15 49 af 3c
       0.04890467 0.00719653 0.010410281 0.021397153
000030 3b 6c 2d 3d c2 c7 80 bd 4a f9 e8 bc b1 14 45 3d
       0.042339545 -0.06288101 -0.028439183 0.048115436
000040 3f f7 82 3c 25 43 a6 bb c7 02 0c 3d 77 c3 10 bd
       0.015987037 -0.005073922 0.034182336 -0.03534266
000050 3b 00 5e bd 68 15 f5 3c cd 81 1f 3c 9a 71 dd 3b
       -0.05419944 0.029917434 0.009735537 0.006757927
000060 b3 f3 5f 3d 1d 9f 73 3d 32 1b 60 3d ac 18 72 3d
       0.05467577 0.059477914 0.054713435 0.05910556
000070 fa 42 97 3c 4c 7f 99 3c a2 e2 1a bd 27 2c a0 bc
       0.018464554 0.018737458 -0.03781379 -0.019552303
000080 68 8d e8 bb c9 e8 60 3c 97 3b d3 bc ab 71 cc 3c
       -0.007096935 0.013727375 -0.02578525 0.024956545
000090 92 7f 04 bd 75 c0 ff 3c 05 86 a3 3b b6 de 18 3d
       -0.032348223 0.0312197 0.0049903416 0.03732177
0000a0 0a 9c 61 3d 93 5d ba 3c f9 df 02 bb ba f4 e3 bc
       0.05508045 0.022749698 -0.0019969924 -0.027826656
0000b0 9a c0 47 3d 1e eb 1f bd 32 f6 37 bd b3 93 1f 3c
       0.048767664 -0.039042585 -0.044912525 0.009739804
0000c0 25 0c 93 3c 44 4e 7d 3d 16 99 62 bd be 94 4a 3d
       0.017950127 0.061842218 -0.055321775 0.049458258
0000d0 2d 5c 38 bd 07 b5 2c bb 24 ed 95 3c 82 92 f2 bc
       -0.04500978 -0.0026353018 0.018301554 -0.029610876
0000e0 31 cb d1 3c db 1a 61 3c c8 05 47 3d 8a a4 40 3b
       0.025609585 0.013739313 0.048589498 0.0029394948
0000f0 56 9c cd bc 7c 9f 1f bd 08 60 17 3b 8b 37 9a bc
       -0.02509896 -0.038970456 0.002309801 -0.018825313
000100 92 a5 18 bd b9 e4 1f 3d 41 dc 46 bd 80 71 24 3c
       -0.037267275 0.039036486 -0.048549894 0.010036826
000110 e8 46 58 3d 44 f0 0a 3d 13 f9 06 3d a6 ef cf 3b
       0.052801996 0.03392054 0.03295238 0.006345707
000120 f4 2d 27 bd d5 f9 1c bc 62 b2 96 bb 96 cc 6e bd
       -0.04081531 -0.009581049 -0.0045989016 -0.058300577
000130 2a d2 03 bd 19 9c 24 3d be d1 21 3c 5b 5d 74 3d
       -0.03218285 0.04018793 0.009876667 0.059659343
000140 d1 71 42 bb 75 f5 27 3c 2f 51 37 bd 5a 37 03 3d
       -0.002966989 0.010251393 -0.044755157 0.03203521
000150 98 b9 d7 3c 4c 13 56 3c 93 cd 6f 3d cd cf 2a 3d
       0.026333615 0.013066124 0.05854566 0.04170208
000160 86 96 28 bb 27 da 49 bd 27 94 63 bd e9 d5 7a bd
       -0.0025724485 -0.049280312 -0.05556121 -0.061239157
000170 1a b3 7d bb cd 2d 04 3d 05 b5 77 3d ae 20 e4 3b
       -0.003871149 0.03227024 0.060475368 0.0069619035
000180 40 9e 5e 3d 0c 11 d9 bc 39 bc 19 3d 33 c9 da bc
       0.054350138 -0.026497386 0.03753302 -0.026707267
000190 be bf ba 3c 1f 41 55 3c 24 90 ed bb d8 c5 44 3d
       0.022796508 0.013016014 -0.007249849 0.04804024
0001a0 c0 1b e2 3c 50 96 d1 3b b1 4c 7b bc f7 2f 45 3d
       0.027601123 0.0063960925 -0.015338109 0.048141446
0001b0 3a 2e 78 bb b8 c7 2a 3b 46 a9 78 3d 52 52 55 bd
       -0.003786935 0.0026058983 0.060708307 -0.05208046
0001c0 de 44 0a 3d 84 27 d6 bb b9 a7 47 bd 48 4f 2f 3d
       0.033757083 -0.0065354723 -0.048743937 0.042800218
0001d0 51 be 43 bd ae ac 65 bc a3 9e 45 bd f3 08 00 3d
       -0.04778892 -0.014018221 -0.04824699 0.031258535
0001e0 7c 27 b3 3c a3 be 9c 3c ef 00 8e bc b7 33 f4 bc
       0.021869414 0.019133871 -0.01733443 -0.029809816
0001f0 89 75 32 bd aa 3a 3c 3d 4d 78 19 bc 71 04 12 3d
       -0.04356912 0.045954384 -0.009367061 0.035648767
000200 87 c1 06 bd af e9 50 3d 7f f4 7e 3d 76 45 37 3c
       -0.032899406 0.051004108 0.06224489 0.011185994
000210 eb 9b 78 3c c6 0f 05 bd 04 f5 52 bc 1f 17 65 3d
       0.0151738925 -0.032485746 -0.012875799 0.055930253
000220 de d2 a0 bc 63 ed 39 bd 1f 19 68 bd a6 b0 15 bc
       -0.0196318 -0.045392405 -0.056664582 -0.009136355
000230 0c 7c 7e bd a5 0c 19 bd 0b e5 0b 3c 75 55 0b bd
       -0.06213002 -0.037365574 0.008538495 -0.034017045
000240 ce 43 4a bd 3b 44 97 3b a4 d0 5b 3d 69 15 ca 3b
       -0.04938107 0.004616288 0.053665772 0.006167103
000250 fe 62 24 3d d7 70 7e 3c 89 93 49 bd 59 47 3e 3d
       0.04013347 0.015529833 -0.049212966 0.04645476
000260 d9 bb 41 bd 95 eb 02 bd 7b ef 59 bd 5d cd 0b bd
       -0.047298286 -0.03196295 -0.053206902 -0.034131397
000270 43 26 f0 3c 1b d0 54 bd bb 04 87 3c 7a 9b 34 bc
       0.02931512 -0.051956277 0.016481748 -0.011023397
000280 e9 eb 5a 3c c8 ff 8a ba a3 a1 14 bd 88 ac 53 3d
       0.013361909 -0.0010604793 -0.03628696 0.05167821
000290 0c b2 4f 3d 33 97 38 3d 22 ff 95 3c ff 8e 01 3c
       0.050706908 0.04506607 0.018310133 0.007907628
0002a0 f3 b1 1b 3c eb f4 4a 3d 40 b0 13 3c f3 5b 20 bd
       0.009502876 0.04954998 0.009014189 -0.03915019
0002b0 81 37 48 bd 05 8c 07 bd 5b 33 24 3d de 3c 7c bd
       -0.048881058 -0.033092517 0.04008804 -0.061581485
0002c0 7b be 55 3d 92 f5 3d bd d0 f4 b0 3c 32 43 2d bc
       0.05218361 -0.046376772 0.02160111 -0.010575103
0002d0 d6 10 79 3d 2d 81 2b bc 96 82 28 bc 22 0d 18 3d
       0.06080707 -0.01046781 -0.01028504 0.0371219
0002e0 8d 9e 0a bc 7c 07 7a 3c 46 43 aa 3c 09 28 39 3d
       -0.008460653 0.0152605735 0.020784032 0.045204196
0002f0 a8 b7 e8 3c 92 5e 57 bd 5a ef 6e 3d ab d3 18 3d
       0.028407887 -0.052580424 0.058333732 0.037311237
000300 47 2a 28 bc ca 08 01 3d 65 59 47 3d 2c 6c 80 bc
       -0.010263986 0.031502523 0.048669238 -0.01567658
000310 c5 e4 40 3d 35 83 b6 bc 17 69 51 3b c6 e5 20 bd
       0.04709317 -0.022279361 0.0031953508 -0.03928163
000320 39 99 45 3d f9 85 27 bd 5a 6c 4c bc 70 f5 ca bc
       0.048241828 -0.04089925 -0.012477005 -0.024775237
000330 71 01 10 bd 38 a6 b5 bb 15 ed 08 3d 27 17 0f 3d
       -0.035157625 -0.0055434965 0.033429224 0.03493419
000340 dc 72 43 bd 76 4b ea 3c a1 fb 1d bd fe 30 33 3d
       -0.04771696 0.028600436 -0.03857005 0.043747894
000350 c8 ac 93 bc a4 28 7b 3b 00 0d f8 bc c6 aa 79 3b
       -0.018026724 0.0038323784 -0.030279636 0.0038096174
000360 a8 0b ec 3c 82 bf 06 3d 0f fa a8 bb 94 ae 01 bd
       0.028814152 0.03289748 -0.0051567624 -0.03166063
000370 f2 4b 56 bd 46 6a 1f bd 1c 87 fe 3c a2 ff 0a bd
       -0.05231852 -0.03891971 0.031070285 -0.033935197
000380 62 38 ad bc 39 cb 6d bd 13 c6 00 3d 2b 95 da bc
       -0.02114505 -0.058055136 0.0314389 -0.026682457
000390 3a 9f 42 3d dd 4e ff bc 08 09 87 bc 7a 2e ca 3c
       0.04751513 -0.031165535 -0.016483799 0.024680365
0003a0 a7 30 3f bd 9a 9d f1 3c 9f 56 71 3c 9a 4a 14 3c
       -0.046677258 0.029494096 0.014730125 0.0090509895
0003b0 29 d6 cc 3c 82 cf c4 bc cf 25 cd bc 86 65 7c 3d
       0.025004463 -0.024024729 -0.025042443 0.061620258
0003c0 f2 6b 86 bb 10 81 39 3d 25 bf 19 bd c5 f9 bd 3c
       -0.0041022236 0.0452891 -0.037535805 0.023190388
0003d0 a0 ad 43 3d 9b 85 bc bc d6 af 5d 3d 09 a0 5a bd
       0.047773004 -0.023012927 0.05412277 -0.053375278
0003e0 da 08 11 3d bc 6b 01 bd b7 99 1c 3d b8 df 79 3d
       0.035408832 -0.031596884 0.03823253 0.06100437
0003f0 ca 82 88 3b 92 af 84 3c 72 f5 59 bd d6 ac 51 bd
       0.004165982 0.016197 -0.05321259 -0.05119022
