models/brain_siren_1058684.pth (torch, 798359 bytes, 9 tensors)

net.0.linear.weight f4 [256, 3]
000000 c0 dc 2b 3d f9 ba 26 be 4c 28 49 be ca c6 87 bd
       0.04195857 -0.16282262 -0.19644278 -0.06629713
000010 d6 47 0a be be bf 9b 3e e9 9f a0 be ed ac 9d 3e
       -0.13503966 0.30419725 -0.31372002 0.30795994
000020 42 07 a5 bd c0 02 b1 3d cc ff 01 be 02 98 39 be
       -0.08058025 0.08643103 -0.12695235 -0.18124393
000030 1a e2 80 bc 48 5a a2 be 33 0f f7 3d 4f 2c c8 3d
       -0.015732814 -0.31709504 0.12063446 0.09774076
000040 c8 2c 45 3e 33 46 9d be 88 84 55 3a fa 0b dc 3d
       0.19255364 -0.3071762 0.0008145054 0.10744472
000050 da cb 7d be 69 f3 84 3e a8 23 a8 be 9e ad 04 be
       -0.24784794 0.25966957 -0.32839704 -0.12956855
000060 8d 1a 1a 3e 18 a1 f6 3d f3 36 2a be a3 6b 3d be
       0.15049191 0.12042445 -0.16622524 -0.18498091
000070 b3 31 14 be eb 81 96 3e e5 bb 83 3e 03 9e 99 3e
       -0.14472084 0.29395995 0.2572929 0.30003366
000080 c6 c2 30 3e 6a 2f c9 bc fe 70 5c 3d 76 02 91 3e
       0.172618 -0.024558742 0.053818695 0.2832219
000090 61 45 16 be 1e a3 c6 bb 3b 49 a9 be fc ef 9d 3e
       -0.14674903 -0.0060619256 -0.33063683 0.30847156
0000a0 5f 90 85 be 56 e3 07 be ed 77 9c bd 9f 21 76 be
       -0.2608671 -0.13270316 -0.076400615 -0.24036263
0000b0 96 d0 b6 bc 72 e4 17 3e f2 8a 05 3e 0c 50 71 be
       -0.022316258 0.14833239 0.13041285 -0.23565692
0000c0 58 f5 72 be 61 74 8d be 38 ef 8b be 13 cf 39 be
       -0.23726404 -0.27627853 -0.27330947 -0.18145399
0000d0 1c 6d 0e 3e 0b 3f 72 3e 5b ce f3 bd 37 8c aa bc
       0.1390881 0.23656861 -0.119045936 -0.020818813
0000e0 3a 36 74 3d 40 2f 9a 3e 07 ab 6b be ea 81 54 be
       0.059622027 0.30114174 -0.2301446 -0.20752683
0000f0 c6 90 64 be cb 19 f5 3c c8 90 a8 3e ab 06 76 3e
       -0.22320852 0.029919526 0.3292296 0.24025981
000100 0b 9c 91 be c2 a2 06 3d b8 0f a1 be 52 bc 9c be
       -0.28439364 0.03287006 -0.31457305 -0.30612427
000110 0a c6 c0 bd ab 44 81 3e 09 dc c2 3d f9 b2 99 bd
       -0.09412773 0.25247702 0.095146246 -0.075048395
000120 fc ef f7 bc 2d ba 60 3e f7 c7 9f 3e 65 35 55 bc
       -0.0302658 0.2194602 0.3120725 -0.0130132185
000130 3e b0 22 3e 35 5f e8 3c 17 45 dd bd 13 5e 8f 3e
       0.15887544 0.02836571 -0.108041935 0.2800146
000140 c1 39 0c 3e 00 3b 6d 3e c9 e7 75 be d0 63 86 3e
       0.13693906 0.23167038 -0.240142 0.26248026
000150 4f dd 36 be f0 30 4c 3e 0c 78 86 3e e7 f2 2e be
       -0.1785786 0.19940543 0.26263463 -0.17084847
000160 1c a4 47 be 68 c9 10 3e 9b 56 8f 3d e0 ec 89 3e
       -0.19496197 0.1413933 0.069989406 0.26938534
000170 1c 06 df 3d 11 54 20 3d 68 71 8a 3e c4 56 a7 3e
       0.10889837 0.039142672 0.27039647 0.32683384
000180 8c 6d 3b 3e e1 3d 81 3e 7a db 53 be f5 25 85 bd
       0.18303508 0.25242522 -0.20689192 -0.0650138
000190 a6 04 2b 3e 40 40 88 3d cd 52 24 be 28 73 5a 3e
       0.16700992 0.0665288 -0.16047211 0.21332991
0001a0 ba 2a f1 bd 76 f5 56 bd a4 29 79 3d 11 46 1c 3d
       -0.117757276 -0.052480184 0.060830727 0.038152758
0001b0 59 a9 6f be c6 c2 7d ba 09 ea 3c bd 5e bb 43 3e
       -0.23404445 -0.00096802076 -0.04612163 0.19114444
0001c0 5b 3d 67 3e b9 7d 71 3e 6f aa 0c 3d 58 c4 96 be
       0.22581999 0.23583116 0.034342226 -0.29446673
0001d0 15 c9 4b be 05 43 83 bd 9f 89 8b be f8 26 80 3d
       -0.19900925 -0.06409267 -0.27253434 0.06257433
0001e0 ba 91 3a 3e 54 aa 4b 3e dc b8 6a 3e ee bc 1d bd
       0.18219653 0.19889194 0.22922081 -0.038510256
0001f0 bf e3 b6 bd 80 bc cb 3c c5 8b 8c bd e2 06 0c be
       -0.08930158 0.024870157 -0.068625964 -0.136745
000200 e4 b6 91 be 48 b7 28 3e 55 9a cc 3c d2 66 9f be
       -0.28459847 0.16476166 0.024975935 -0.31133133
000210 06 cd 1d bc 86 bb 42 bc b1 c1 06 be af b6 4d be
       -0.009631401 -0.011885529 -0.13159825 -0.2008922
000220 ba 6d 5a 3d ea 17 2a be 11 33 7d be 30 3f 18 3e
       0.0533273 -0.16610685 -0.24726512 0.14867854
000230 26 63 a4 be 4d 2b 2f bc 33 6f 04 3d 87 7a 2f 3d
       -0.32106894 -0.010691476 0.03233261 0.04284146
000240 41 05 36 bd 63 78 14 be f9 aa 8d bc 4d 57 f7 bd
       -0.044438604 -0.14499049 -0.01729344 -0.12077198
000250 92 bf 80 be ac 12 e8 bd 07 9e 60 3d 77 3f 91 bd
       -0.25146157 -0.113316864 0.054838207 -0.07092183
000260 18 2f 31 be d2 83 3b 3c d6 9f 87 3e 45 9a 97 3e
       -0.17303121 0.011445003 0.26489133 0.29609886
000270 8a 80 af bd 79 59 d6 3c 04 ea dd 3b 2e 05 91 be
       -0.08569439 0.02616571 0.0067722816 -0.28324264
000280 a7 bf ad bc 14 d9 ab bd 92 29 89 bd 04 c5 82 3e
       -0.021209551 -0.08391014 -0.06697382 0.25540936
000290 7b 9a 4e be 9a 24 33 be d4 08 92 be c3 25 a3 3e
       -0.20176117 -0.17494431 -0.2852236 0.31864747
0002a0 a7 ce 89 be 37 86 aa bb 26 2b 87 3d c6 8a c1 bd
       -0.26915476 -0.005203988 0.06600027 -0.09450297
0002b0 a4 25 09 bd 32 7a ff 3d 03 66 69 bd 55 f6 19 3e
       -0.033483163 0.12474479 -0.05698205 0.15035374
0002c0 ae 34 a5 3b f8 17 1d be 49 74 6b 3e ea 3d 34 bc
       0.0050416803 -0.15341175 0.22993578 -0.01100109
0002d0 e9 6e a7 3e 2e 4d 2f bd c9 3e 79 be da e0 81 be
       0.32701805 -0.042798214 -0.24340357 -0.2536686
0002e0 00 b2 83 3e 44 d2 8e be 2f d1 37 be a2 4c 88 3e
       0.2572174 -0.27894795 -0.17950891 0.26620966
0002f0 1d 51 9d 3d e4 d9 91 3d f9 14 35 be 33 14 8c 3e
       0.07681487 0.071216375 -0.17683782 0.2735916
000300 73 d0 77 3d 01 57 20 3e 13 2f 16 be 01 df 7a 3e
       0.060501527 0.1565819 -0.14666395 0.24499132
000310 e1 22 96 be e0 55 47 bd 8f 69 30 be e4 29 1e 3e
       -0.29323485 -0.04866588 -0.17227767 0.15445668
000320 d0 d8 7f bc 54 a4 f5 3d bd 71 8d bb 0b 41 2c 3e
       -0.015615657 0.11994234 -0.004316537 0.16821687
000330 b9 be aa bc fe 15 9e be 2f 1f a9 3e af 9d 7a 3e
       -0.020842897 -0.30876154 0.33031604 0.24474214
000340 24 2b 14 be df 08 1f be 3d 0d a7 bd a8 3a 85 3e
       -0.14469582 -0.15530728 -0.08156822 0.26021314
000350 dd bd 14 3e 40 6a 36 be 85 24 40 3e 2c 58 a4 3d
       0.14525552 -0.17813969 0.18763931 0.0802463
000360 f2 a5 84 be 0a 0b 95 bd 32 da 83 be 6c d6 8d be
       -0.25907856 -0.07277496 -0.25752407 -0.27702653
000370 2e fe 92 bd 5d d4 f2 bd ee e0 fa bd f6 8e b4 3c
       -0.07177387 -0.11856911 -0.12249933 0.022040825
000380 00 24 3e 3d 63 a7 4c be 75 14 89 bd 86 ed f2 bb
       0.04642105 -0.19985728 -0.06693355 -0.007413569
000390 94 c0 87 be 30 cd 01 3d d6 af 4f bd 30 6c 11 3e
       -0.26514113 0.031689823 -0.0507048 0.14201427
0003a0 e0 1c 77 3c 4f c9 69 3d 15 71 61 bb 12 f1 27 3e
       0.015082568 0.05707675 -0.0034399678 0.16400555
0003b0 38 6b 65 3e 99 a6 dc bd 3b bb 28 3e 9b 84 d2 3c
       0.22404182 -0.107739635 0.16477673 0.025697997
0003c0 2e 6c ee 3d 35 14 01 bd df 09 6b 3d cf 8e b6 3d
       0.116417274 -0.03151341 0.05738246 0.08913957
0003d0 be bd 3e bc 0c 1f 60 be d6 05 d0 3d b4 98 37 be
       -0.011641918 -0.21886843 0.10157363 -0.17929345
0003e0 ed e9 39 3c 2e 64 93 be a9 c6 9e 3d cf d8 9c 3e
       0.011347276 -0.2878737 0.07752735 0.30634162
0003f0 50 2c ca 3d 3f ae 8d be a0 c0 a0 3e c6 a4 09 3e
       0.09871733 -0.27672002 0.3139696 0.13441762

net.0.linear.bias f4 [256]
000000 38 13 f3 3e 46 34 79 3e 0b 87 ef be 73 a1 45 bd
       0.474756 0.24336347 -0.46782717 -0.048249673
000010 e4 6c 12 3e 2e 2e eb 3c ea 25 ca be d5 e3 05 be
       0.14299351 0.028708544 -0.3948205 -0.13075192
000020 98 31 b5 be 77 f8 f9 3e 76 41 2c be 57 c8 0e bf
       -0.353894 0.48822376 -0.16821846 -0.55774444
000030 d1 40 87 be 32 4a ae be 10 60 f1 3e a7 ce ac be
       -0.26416638 -0.34040982 0.47143602 -0.33751413
000040 31 37 10 be 0c 3f e1 3e 85 6d 7f 3e c1 7b 84 be
       -0.14083554 0.43993413 0.24944122 -0.25875667
000050 9b c3 e2 3e dc 41 ab bd 21 65 07 3f c8 9c 31 be
       0.4428986 -0.08362171 0.52888685 -0.17344964
000060 d7 b3 6a be 9c 1c 68 be a5 c7 32 bd a6 5f 2d be
       -0.22920166 -0.22667164 -0.043647427 -0.16931018
000070 78 0b 07 3f 58 a8 52 be f5 87 58 3e eb c8 fa bd
       0.52751875 -0.2057203 0.21145613 -0.12245353
000080 3a 47 cb 3e 80 f3 77 bc c6 32 83 bd a7 a6 02 be
       0.3970278 -0.0151337385 -0.06406169 -0.12758885
000090 d7 36 c9 be ac 65 85 3e 0c 5b f5 be b8 d4 e5 bc
       -0.39299652 0.26054132 -0.47921026 -0.028055534
0000a0 7c 12 03 bd 6d 41 7c 3e ea 63 3c be cb 9a a2 be
       -0.03200005 0.24634333 -0.18397489 -0.31758723
0000b0 fb 24 8f bd 26 f1 d9 be cb d8 d2 3e 51 60 b5 3d
       -0.06989475 -0.42566794 0.41181025 0.088562615
0000c0 f2 dd 32 3e ae 36 ac 3e 59 6b 94 be 4c ce 15 3e
       0.17467478 0.33635467 -0.2898815 0.14629477
0000d0 eb 96 fa be de b1 7d 3e bd ac 5f be 20 70 c4 bd
       -0.48943266 0.24774882 -0.21843238 -0.09591699
0000e0 93 93 c4 be 19 56 41 3d 0f fc af 3e d7 2e f1 bd
       -0.3839384 0.04720125 0.34371993 -0.11776512
0000f0 1e 58 c2 3e c6 f9 a8 3c 2b 4a 81 3e 26 c4 12 3f
       0.37957853 0.020626914 0.25251898 0.5733055
000100 5f 37 a9 3e e2 46 fd 3e e9 07 6a 3e 58 8e 96 3d
       0.33050057 0.49468142 0.2285458 0.07351369
000110 e7 c7 de be f1 c8 e4 bd 7d 31 8a 3e 96 3c b0 be
       -0.43511888 -0.11171139 0.26990882 -0.34421223
000120 ca 7f 66 be 9a 8f 83 be fd 14 fd 3e 1e 6c c2 bd
       -0.22509685 -0.25695497 0.49430075 -0.09493278
000130 db 56 01 bf 69 5f f5 be df 73 d4 be 8a a9 8b be
       -0.50523156 -0.47924355 -0.41494653 -0.27277786
000140 1c 7f 1e 3e 05 2f 89 3e f9 06 0e 3f 9a 07 d6 3d
       0.15478176 0.26793686 0.5547939 0.10450669
000150 5b 1b b4 be 80 92 b8 bd 40 50 f7 be e3 a3 12 3f
       -0.3517712 -0.09012318 -0.48303413 0.5728132
000160 0d 4a f1 bd 64 58 80 be f9 90 e5 3d b6 a8 a5 be
       -0.11781702 -0.25067437 0.11209292 -0.3235528
000170 bb ac d0 3d cc 40 07 3f 31 08 d7 bd e6 67 76 be
       0.10189196 0.5283325 -0.10499609 -0.24063072
000180 04 07 5f be b0 5b a9 bc 50 e5 3d 3d 1f ca d4 bb
       -0.2178002 -0.020673603 0.046361268 -0.0064938213
000190 22 55 c9 3e 04 9f f8 be e9 27 a5 bd 9c 7d 78 3e
       0.39322764 -0.4855882 -0.08064253 0.24266666
0001a0 a2 c3 80 3e 27 cc c7 3e 12 66 a1 3e 67 c0 d2 3e
       0.25149256 0.39022943 0.31523186 0.41162416
0001b0 b3 57 6e be a9 35 d7 3c 7a c1 ac be 5e 90 da 3d
       -0.23275642 0.026270704 -0.3374136 0.10672067
0001c0 6a b5 00 3f dd 0d 68 3e 64 3b d1 be 79 6d 0c bf
       0.50276816 0.22661538 -0.40865624 -0.5485454
0001d0 c0 0d 28 be 1b 89 80 be 1b 32 a3 3e d9 d0 be 3e
       -0.16411495 -0.25104603 0.31874165 0.37268713
0001e0 9d 9f ff be 5e a9 52 3e fe 71 6f be fa 3e dd be
       -0.49926463 0.20572421 -0.23383328 -0.4321211
0001f0 2a 5a c0 be 28 9c 4f be 2b 2c dd 3e ba b9 5d bd
       -0.3756879 -0.20274413 0.4319776 -0.0541322
000200 79 22 f2 be a1 16 c5 be ef 06 0b bf a4 58 de 3e
       -0.47291926 -0.38493827 -0.54307455 0.43427002
000210 64 9b cc bd f0 04 1c 3e ac 78 4d 3e cd 3e b2 bd
       -0.09990576 0.15236259 0.20065564 -0.087033845
000220 05 f4 85 3b 42 2c 93 3d 33 5c c9 be 06 db c6 be
       0.0040879273 0.07186176 -0.39328155 -0.38838977
000230 06 5d d0 3e ce c8 c0 3e 3a 00 b0 be f8 27 16 be
       0.4069597 0.37653202 -0.34375173 -0.14663684
000240 8e f2 cb 3e ed 52 ba 3e 3b 7a b3 be c3 50 4c 3e
       0.39833492 0.36391392 -0.35054192 0.19952683
000250 14 8c 47 3d 01 40 02 3e 1f 8a 00 be 57 fc 95 bd
       0.048717573 0.12719728 -0.12552689 -0.07323521
000260 00 a4 9a be 91 00 69 3d c6 fc a6 3c 8e c3 be 3c
       -0.30203247 0.056885306 0.020384204 0.023286607
000270 14 c5 9b 3e af 81 02 3f d3 fc f6 3e d6 fe 39 be
       0.30423796 0.5097913 0.48239765 -0.18163618
000280 01 26 9e bd d5 f2 8c be 51 8a f2 3d 45 fd 4c 3e
       -0.077220924 -0.27529016 0.11842788 0.2001849
000290 4f 65 2a 3e b2 d3 d7 3e 0a 69 fb 3d ae 2c 0a bf
       0.16640209 0.42153698 0.12275894 -0.53974426
0002a0 2c 6a 81 3e 0d 6e 53 be f4 1e 28 3d 1e 5b 2f bd
       0.25276315 -0.2064745 0.041045144 -0.042811505
0002b0 2e dc 83 be 98 c0 bd be 2a 6f b7 be 9f 7e 31 3d
       -0.2575392 -0.37061 -0.35827 0.043333646
0002c0 0c 2d e7 3e cd f3 fe be 2e 06 4a 3e 04 c3 92 bd
       0.45151556 -0.4979538 0.1972892 -0.071661025
0002d0 19 78 0a bf 83 63 5b be ea 2b e9 be 7d 0b b0 bd
       -0.54089504 -0.2142468 -0.45541316 -0.08595941
0002e0 1f aa 27 be aa 79 f4 3e 41 92 89 3e a0 ad 06 bf
       -0.1637349 0.47749072 0.26869395 -0.5260868
0002f0 e5 b6 e9 3e 1a 70 f3 3d 08 c6 05 3f ae 85 58 3e
       0.4564735 0.11886616 0.52255297 0.21144745
000300 b5 b5 16 3e f4 4f c8 be da 5a ff 3b d9 93 d9 be
       0.14717753 -0.391235 0.007792813 -0.4249561
000310 7f 8f 0f bf 50 85 8c be 0f d6 90 be 26 32 30 be
       -0.5607833 -0.2744546 -0.28288314 -0.1720663
000320 37 0d 87 3e dd fa ce 3e 33 03 12 bf 8f b2 72 be
       0.2637727 0.40425768 -0.5703613 -0.23700927
000330 0a 18 e7 be 8c f6 43 bd 2f 86 02 bf d2 61 ad 3e
       -0.45135528 -0.047842547 -0.50986 0.33863693
000340 75 3f 46 be e0 4d b1 3e 59 82 31 be 51 82 ba 3e
       -0.19360144 0.34629726 -0.1733488 0.3642755
000350 15 86 0f 3f 20 64 bf 3e 00 a3 50 be a8 f9 8b 3e
       0.5606397 0.37381077 -0.2037468 0.2733891
000360 b5 0f f0 bd 5d 0e aa be b7 ad 83 bd 77 a9 ed 3d
       -0.11721746 -0.33214083 -0.06429618 0.116045885
000370 d9 65 78 be f3 62 cc 3e c0 fb 0d bf 9a e2 0e 3f
       -0.24257602 0.39919242 -0.55462265 0.55814517
000380 39 4d 12 3f 39 ae b8 3e 42 0c 9e 3e 3a fd 06 3f
       0.5714908 0.3607042 0.30868727 0.52730143
000390 74 80 c9 bd 2a f2 01 3f a5 d9 0a 3f f8 eb dd 3d
       -0.098389536 0.5076014 0.5423835 0.10836023
0003a0 6a c4 89 be c3 ff 8d 3d 39 2c f2 3e 75 c6 97 be
       -0.26907665 0.06933548 0.47299364 -0.29643598
0003b0 a2 2a e8 bd ad fa bf 3e 39 9a a7 3e 04 d1 fb be
       -0.113362566 0.37495938 0.3273485 -0.49182904
0003c0 78 e8 f7 3e 85 d9 f2 3e c4 bd 1d be c1 40 fa 3e
       0.48419547 0.4743158 -0.15404421 0.48877528
0003d0 cb 6e b1 be 53 f0 f7 3e 40 40 7b 3e 16 aa ed be
       -0.3465484 0.4842554 0.24536228 -0.46418828
0003e0 f5 f1 1d 3e 3c 5a 04 bf 83 4a c1 be 98 03 b0 be
       0.1542433 -0.51700187 -0.3775216 -0.34377742
0003f0 9f f2 e1 3e 95 63 07 3f bf 3c 12 3f f2 25 b0 3d
       0.44130418 0.52886325 0.5712394 0.086009875

net.1.linear.weight f4 [256, 256]
000000 5e 86 34 bb 7e 25 61 ba 64 70 9c bb e7 8f 5a bb
       -0.002754591 -0.00085886556 -0.00477414 -0.0033349933
000010 92 15 60 3b 4e 4a 8d bb 40 04 b8 3b 5d 92 7b bb
       0.0034192544 -0.0043118363 0.005615741 -0.00383868
000020 1a f1 9f 3a 88 de 9b 3b 42 80 04 3b 7e dc 7d 3b
       0.0012202591 0.0047567524 0.002021805 0.003873616
000030 85 2f e1 b9 81 ea 89 3a 1d 3f b0 3a 98 80 b4 3b
       -0.0004295075 0.0010522158 0.0013446544 0.0055084936
000040 91 1e 83 bb 06 f3 92 bb 50 52 a6 b9 c8 b1 8e 3b
       -0.0040014465 -0.004484537 -0.00031723315 0.0043546893
000050 d8 02 6d bb 41 e1 15 bb b5 bb 4e 3a 7c 72 75 bb
       -0.0036165025 -0.0022869857 0.0007886247 -0.0037452271
000060 e8 fa 13 ba ff b8 73 bb 28 7c d0 3b 6f 6e df 3b
       -0.0005644993 -0.0037189124 0.006362457 0.0068185846
000070 80 07 87 3b 13 66 75 bb 90 06 9f 3a 62 63 4d bb
       0.004120767 -0.0037444874 0.0012132693 -0.0031339754
000080 1f 61 de 39 a6 35 4c 39 95 46 ed ba 12 ad a9 ba
       0.000424155 0.00019474942 -0.00181027 -0.0012945256
000090 1a ba 55 3a 6f 79 3d 3b 3b d4 88 3b 89 1c a8 3b
       0.00081530365 0.0028911491 0.0041756905 0.005130355
0000a0 27 a8 5f bb 4d 9e 48 ba dd 68 16 3c eb 3b ff b9
       -0.0034127326 -0.0007652983 0.009180275 -0.00048682033
0000b0 a2 d5 7b 3a 65 f7 74 bb 5d 49 9b ba 6e c7 28 3b
       0.0009606724 -0.0037378904 -0.0011847425 0.0025753635
0000c0 8f b9 dd ba 60 7b f3 3a a7 05 5a 39 ee 85 b5 3b
       -0.0016916263 0.0018576197 0.00020792206 0.0055396473
0000d0 6d ad 75 bb c3 71 b8 bb b6 8a 97 bb d1 90 0d 3b
       -0.0037487403 -0.005628796 -0.00462469 0.002160121
0000e0 af f2 39 37 08 f6 bd ba 9e 11 a5 bb 7e dd 93 3b
       1.10833635e-05 -0.0014492879 -0.0050375005 0.004512488
0000f0 ff 7f 7a 3b cd e1 de ba ad a6 46 bb 6c a6 b2 3a
       0.0038223264 -0.001700455 -0.003031175 0.001362992
000100 6e 66 35 bb 91 bb b6 ba 6d aa 73 3b 25 d1 23 ba
       -0.002767946 -0.0013941397 0.003718044 -0.00062491215
000110 46 a2 18 b9 bb ca 51 3b 93 61 9f ba e3 fb 5c bb
       -0.00014556301 0.0032011706 -0.0012159817 -0.0033719472
000120 4b a6 aa 3a 9a 19 78 3b 53 65 0f 3a 46 ab 29 bb
       0.001301953 0.0037857057 0.00054701156 -0.002588944
000130 87 d7 bc ba 6e 93 01 bb e3 2b 04 bc a5 86 05 ba
       -0.0014407494 -0.0019771713 -0.008067104 -0.0005093611
000140 39 70 b4 ba 30 7c f3 3a 5c f7 a9 bb 43 02 d9 3b
       -0.0013766355 0.001857644 -0.0051869582 0.006622584
000150 1b ee 0d bc c0 32 8c ba 15 30 99 ba a0 22 13 bb
       -0.008662726 -0.0010696277 -0.0011687303 -0.0022451058
000160 c0 42 02 3c df 86 35 bb e8 b7 f6 3a 0c b0 21 bb
       0.007950485 -0.0027698798 0.0018823119 -0.0024671583
000170 7d 30 9c 3b 55 ba ab b9 99 2d 3e 39 d9 03 1a 3b
       0.0047665224 -0.0003275449 0.00018136798 0.0023500829
000180 fb 6e d0 3a 5e 51 eb ba ee b9 9d bb b3 c1 e4 ba
       0.0015902215 -0.0017953326 -0.0048134243 -0.0017452746
000190 a8 d9 2f 3b 3b 69 02 3b 8e cb 7f 3a 41 0e 18 ba
       0.0026832614 0.0019899148 0.000975781 -0.0005800464
0001a0 d8 b6 c5 ba 28 28 a1 bb a8 f9 80 bb 23 f4 82 3b
       -0.0015084399 -0.004918117 -0.0039360113 0.0039963885
0001b0 9f a0 82 38 46 a2 d8 3b 19 9c ff bb 7c b3 35 ba
       6.228801e-05 0.0066111414 -0.0078005907 -0.00069313473
0001c0 91 4e e1 3b 76 25 b6 3a a8 8a dd 3b 82 57 09 bb
       0.006875821 0.0013896662 0.006760914 -0.00209567
0001d0 c4 f6 a7 bb 7a 86 bc ba 5c a4 b1 b9 86 d9 da 3b
       -0.0051258523 -0.0014383339 -0.00033882528 0.006678763
0001e0 05 eb 1d bc 11 39 ac bb 2e 3b 8f ba 66 88 0f 3c
       -0.009638553 -0.0052558263 -0.0010927671 0.008760547
0001f0 60 2b 1d 3b ce 49 10 bb 76 02 91 39 f3 d6 47 3b
       0.0023982152 -0.0022016647 0.0002765839 0.003049311
000200 f1 4f 4d 3b 7c 17 77 b9 40 fb dc 3b 2c c5 fd bb
       0.0031328166 -0.00023564504 0.0067438185 -0.007744452
000210 2a 89 5a 3b 80 9a 41 bb 79 1e a3 3a 66 b0 73 bb
       0.0033345916 -0.0029541552 0.0012444995 -0.0037184
000220 90 14 ae 3b 2e 19 45 bb cb 5f 51 3a 09 9d 0b 3c
       0.00531251 -0.0030074823 0.00079869915 0.008521327
000230 b5 d5 76 bb 86 2f ca 3b 9a da 32 3b a3 bb 0e bc
       -0.0037664 0.006170216 0.0027290941 -0.008711728
000240 e0 94 0a 3b 24 2e f7 bb 8e f9 57 3b 83 bd d4 39
       0.0021145865 -0.007543342 0.0032955143 0.00040576988
000250 2c 75 0b 3b 0d 9a 16 3b 35 11 e9 ba 88 52 01 3b
       0.0021279557 0.0022980005 -0.0017781617 0.001973303
000260 07 96 cf 3b 65 9a ea 3a 41 03 97 3a 7e d1 a1 bb
       0.0063350233 0.0017898796 0.0011521355 -0.0049383035
000270 de 02 87 3b bd 77 18 3b d2 c8 83 3b 97 e9 ea 3b
       0.004120215 0.002326473 0.0040217424 0.0071689594
000280 ca ae ce ba 55 38 d5 3a 45 d8 33 bb 64 a7 9d bb
       -0.0015768644 0.0016267399 -0.002744214 -0.0048112143
000290 1a 2f d5 3a 4d 80 b6 bb cd b5 93 3b 98 30 b1 ba
       0.0016264648 -0.005569494 0.0045077563 -0.001351851
0002a0 13 db e2 ba 10 bb 41 bb 20 81 20 3b 7a af 8d bb
       -0.0017307721 -0.002956096 0.0024491027 -0.004323897
0002b0 07 ea 2c 3b 05 07 ba bb 6a fd cd 3b 9f bc 0b 3c
       0.0026384608 -0.0056771063 0.006286313 0.0085288575
0002c0 33 8b 4e 3a 46 df ac 3b 63 9c d5 3b 4b c7 c9 ba
       0.00078790187 0.0052756397 0.006518887 -0.0015394477
0002d0 01 fb f0 ba 7f d2 89 3b 50 b9 74 bb 7c e1 06 bb
       -0.0018385352 0.0042060013 -0.00373419 -0.0020581177
0002e0 77 84 d4 bb 8e ed 04 bc c6 b3 c7 bb 03 d1 9f 3a
       -0.0064855176 -0.008113278 -0.0060944287 0.0012193028
0002f0 d7 b8 1e bb 4f fe 4f bb 4a af 1e bc 25 71 65 3b
       -0.002421906 -0.0031737273 -0.009685347 0.0035010066
000300 83 40 8e ba a5 ed f1 ba d2 99 37 3b 71 36 83 3b
       -0.0010852966 -0.0018457664 0.0028015268 0.0040042927
000310 a2 84 b5 3b d9 0f aa 3b 94 2f b6 bb 3e d5 0f bb
       0.0055394927 0.0051898775 -0.005559871 -0.002194717
000320 35 05 58 39 37 72 76 3b 7f e1 99 3b e6 17 b7 3a
       0.00020601305 0.0037604698 0.0046960707 0.0013968914
000330 16 bf 09 bb 49 91 a2 bb 07 58 bb 3a 6c 6d e2 bb
       -0.0021018437 -0.004961167 0.0014293202 -0.0069100168
000340 68 b8 14 bb e3 97 bc bb e7 7e 99 3b e5 96 7f bb
       -0.0022692923 -0.005755411 0.0046843174 -0.0038999852
000350 5c 0f 9c bb 9e ac 29 3b cd cd 4b 3b d7 2c 23 ba
       -0.004762573 0.0025890241 0.0031098009 -0.0006224638
000360 86 48 88 3b 5f 77 6e 3b 63 51 38 38 50 ab e9 ba
       0.004159036 0.0036387069 4.3944816e-05 -0.0017827544
000370 11 00 05 bb f7 37 e0 bb 9d c5 a6 3b 13 97 b0 3b
       -0.002029423 -0.006842609 0.0050894753 0.005389103
000380 11 37 e8 3a 48 3f 98 bb 3f 0b 05 3c 29 6a 36 ba
       0.0017716606 -0.0046462156 0.008120357 -0.0006958568
000390 88 8a 94 ba 1f dd 29 3b c1 23 9f 39 ec d0 7d 3b
       -0.001133279 0.0025919152 0.00030353482 0.0038729263
0003a0 55 25 79 bb be 1e 4b 3b e9 a3 90 ba c2 f5 0d bb
       -0.0038016636 0.0030993666 -0.0011035177 -0.0021661376
0003b0 d2 72 bd bb 6d fa 65 bb bd 1c db 3a 17 60 75 3a
       -0.00578151 -0.0035091892 0.0016716939 0.0009360327
0003c0 98 a6 c5 3b 9e 1e 17 bb 42 4e 0e 3b 73 5b 89 bb
       0.0060318224 -0.002305902 0.0021714126 -0.00419181
0003d0 70 1d 7d bb 73 84 21 bb 8b bc 99 3b 5b a7 06 bc
       -0.0038622282 -0.0024645596 0.0046916655 -0.008218612
0003e0 7c 8c 17 ba b0 a0 77 bb 9d ce 44 3b cb bf 08 bb
       -0.00057811267 -0.0037784986 0.0030030378 -0.002086627
0003f0 08 08 9a 3b 5f 45 8d 3a 29 eb 58 bb 7a 2a 2c 3b
       0.0047006644 0.001077812 -0.003309915 0.0026270435

net.1.linear.bias f4 [256]
000000 8a bb a1 3c 54 ad 7c bd 08 1d 3f 3b 66 7a 80 3c
       0.019742746 -0.061688736 0.002916159 0.015683364
000010 46 c4 53 3d 9a 66 81 3d 2e 50 3f bd 2b 04 cd bc
       0.051700853 0.06318398 -0.046707325 -0.025026402
000020 23 5b 30 3d 7a ae 29 bc f3 f6 03 3d 62 47 fc 3c
       0.043055665 -0.01035654 0.03221793 0.030795757
000030 15 c8 77 bd c9 2d 91 3c 44 98 db bc 1a 9e 5b 3d
       -0.060493547 0.017722027 -0.026806004 0.053617574
000040 24 a3 9c ba 4b b9 a7 3c b8 0b 0d bb 45 43 7e bd
       -0.0011950475 0.020474097 -0.0021521877 -0.062075872
000050 0a 72 33 3d 85 88 3d bd 6d d0 6a bd 48 a7 4b 3d
       0.043809928 -0.046272773 -0.057327677 0.04972008
000060 06 50 26 bd 52 38 3d 3d af a1 ca 3c 45 0c 69 3d
       -0.04060366 0.04619629 0.0247353 0.056896467
000070 f2 4b a0 3c de 30 80 bb 02 b7 0d bd 0f 55 54 bd
       0.019567464 -0.0039120754 -0.034598358 -0.05183893
000080 26 e2 c5 3b 31 98 2f bd 9f 0f ea 3c 6a 0a 43 3d
       0.006038922 -0.04286975 0.028571902 0.047617353
000090 8a 72 f4 bc 2c 82 d9 3c 43 0a 3b 3b ea 69 46 3c
       -0.029839773 0.026551329 0.0028540052 0.012110213
0000a0 58 4f e4 3c 14 86 78 39 1e 81 d3 3b ee 52 af bb
       0.027869865 0.00023701071 0.006454601 -0.005350462
0000b0 2e de 22 3d 03 a7 18 bd a2 8f 43 bd ea a7 35 3d
       0.03976267 -0.03726865 -0.0477444 0.04434959
0000c0 b2 01 27 bd 6c b7 15 bd 49 bb 37 bc f9 61 00 bd
       -0.0407731 -0.036551878 -0.011214086 -0.031343434
0000d0 35 6a d5 bc 15 b3 02 3d dc 5a 15 3d c2 1d 19 3b
       -0.02605162 0.031909067 0.036463603 0.0023363684
0000e0 a6 7d e6 bc c0 6e bc 3c 7e 59 0f 3c f6 f0 74 3c
       -0.028136086 0.023002028 0.008749364 0.014950028
0000f0 2a 3e 54 bd c4 30 00 3d d8 05 e9 3a 7f 0e 94 3c
       -0.051817097 0.031296507 0.0017778231 0.018073319
000100 64 7b 67 bd 23 b9 62 3d 1e ac 92 3c 3e 02 18 bd
       -0.05651416 0.05535234 0.017904337 -0.037111513
000110 c9 26 ac bc 2e 96 7f 3d ab 68 3a 3c 8e 4f f4 bc
       -0.021014588 0.062399082 0.011377494 -0.02982309
000120 52 6b 55 bd 2b e6 5f 3d 1a 0a 40 bc 38 65 50 bd
       -0.0521043 0.054662865 -0.011721158 -0.05087778
000130 76 00 6e 3d fd cf 6a bb 6d bd 6c bc c3 13 dd bc
       0.05810591 -0.0035829537 -0.0144494595 -0.026986962
000140 fc 73 0d bc b2 0c 63 3d 15 73 81 3d 25 3f bc 3b
       -0.00863361 0.05543203 0.06320778 0.005744832
000150 d1 62 1e 3c 29 38 4b 3c 8f 9a 05 3d 32 e8 ac 3c
       0.009667114 0.012403526 0.0326181 0.021106813
000160 42 a7 73 bd 2e 3b 08 3d 6a 13 c1 bc e1 12 48 bd
       -0.05948568 0.033259563 -0.023568828 -0.04884613
000170 f3 3b 0a bd ec 9b 06 ba d0 65 21 bd f8 92 f8 bc
       -0.03374858 -0.00051349285 -0.039403737 -0.030343518
000180 02 d6 1c 3d cd bf 2e 3d 64 bc a7 3c 7e f0 03 bc
       0.03829003 0.042663384 0.020475574 -0.008052943
000190 15 43 31 3a 84 0b 52 3d 52 44 d0 bc 4d 15 09 bd
       0.000676201 0.051280513 -0.025423203 -0.03346758
0001a0 df 72 b0 39 2b ac 45 3d 74 ec be bc 29 70 2b bd
       0.00033654922 0.048259895 -0.023306109 -0.04185501
0001b0 79 92 58 bd 33 a8 55 bd ce b9 75 3d 0d f5 31 bd
       -0.052874062 -0.05216236 0.05999165 -0.04344659
0001c0 19 47 76 bc 46 b2 45 bd d2 18 21 3d 25 9c 00 bd
       -0.015031599 -0.048265718 0.03933031 -0.03139891
0001d0 ab 84 10 3d 4e 81 f5 3c 7d c7 ec 3c b1 97 72 bd
       0.035282772 0.029968884 0.028903717 -0.059226695
0001e0 6c 6a 11 3d 49 c2 6f 3c 43 6d 24 bd 56 a5 ea bc
       0.035501882 0.014633724 -0.040143263 -0.028643291
0001f0 79 bc 77 3d 1a 8b 1a bc 8f aa 56 3a 64 b0 34 bd
       0.060482476 -0.009432578 0.00081888674 -0.04411353
000200 c3 1b 42 bc dc 77 b3 3c a3 ed 5f 3d 37 47 38 bd
       -0.011847439 0.02190774 0.054669987 -0.04498979
000210 ce d2 7f bd ff 67 4d 3c d8 b9 0e 3d d1 bf 67 bd
       -0.0624569 0.012537002 0.034845203 -0.056579415
000220 54 d5 29 3d 08 91 d7 bc 14 ab 02 bd 14 ec 64 3d
       0.04146321 -0.026314273 -0.031901434 0.055889204
000230 98 a3 73 3d 1a 8b ac 3c 13 79 b0 3c 79 96 99 bc
       0.059482187 0.021062423 0.021542108 -0.018748509
000240 37 38 e8 bc 4b 50 13 bd 37 07 56 3c 61 f3 5c bd
       -0.028347118 -0.035965245 0.013063244 -0.05394304
000250 95 47 5f bc de 3c 00 3d 6d a6 4a 3d 04 75 d3 3c
       -0.013627906 0.031308047 0.049475122 0.025812633
000260 77 11 28 bd 2c 1d 14 3d 23 5d 61 3c 2c 8e 74 bd
       -0.04103228 0.036160633 0.013755116 -0.0597059
000270 e8 5c 15 bd 9d 92 09 3d 71 68 0b 3d 01 8d 5f bd
       -0.036465555 0.033587087 0.03403515 -0.05457783
000280 9e f6 70 3d e1 3b 5d 3d 01 70 47 3d 64 f4 be bc
       0.058828942 0.054012183 0.0486908 -0.023309894
000290 c8 d6 98 bc 75 77 8d bc 2a e8 4e 3d e5 af 12 3c
       -0.018657103 -0.017268876 0.050514378 0.008953069
0002a0 f2 71 22 bd 0a 0d cf 3c 01 18 08 3d 95 d2 1f 3d
       -0.039659448 0.025274772 0.033226017 0.039019186
0002b0 9c b6 6a 3d 5c 5b 0d bd 61 09 dd 3c 3e 20 3c 3d
       0.057303056 -0.034510955 0.026982011 0.045929186
0002c0 74 15 68 3d 28 87 5f 3c b5 c8 cd bc 9e 98 2c bd
       0.056661084 0.013643064 -0.025120119 -0.042137735
0002d0 6e 59 42 3d f2 b5 38 3d 02 16 5a bd dd ff d8 3c
       0.047448568 0.04509539 -0.053243645 0.026489193
0002e0 2a 87 82 bc 84 40 71 3c 09 cb e3 bc 84 89 04 3d
       -0.015933592 0.014724854 -0.027806776 0.032357708
0002f0 2c 98 7d 3d 9c 99 49 3d 05 f1 5d bd 73 e1 6f 3d
       0.0619127 0.04921876 -0.054184932 0.058564615
000300 9b 59 bb 3c 6b de 84 3a d6 bd 42 3c bc 9f 35 bd
       0.022869876 0.0010137087 0.011886081 -0.044341788
000310 8c e8 39 bd 45 37 e4 bc b2 7d 21 3d 28 b2 c0 bc
       -0.04538779 -0.027858386 0.039426513 -0.023522452
000320 97 88 6b 3d 1e 1b 73 bc 17 64 6e 3b cc c2 1e bd
       0.05750331 -0.014838008 0.0036375576 -0.03875999
000330 a3 2d 9c 3c 55 88 6e 3d 62 80 32 bc 90 ab 63 bd
       0.01906473 0.058235485 -0.010894867 -0.055583537
000340 77 82 7e bd 97 4e 45 3d 98 f5 7c bd 0c fe 55 bc
       -0.06213614 0.048170652 -0.061757654 -0.013061058
000350 4e 15 e9 bc d0 de 6b bd e6 ab 84 bc d4 27 6b 3d
       -0.028452542 -0.057585537 -0.016195249 0.05741103
000360 da dc 5d bd 0d 54 09 bd a0 9d 08 3d 22 b6 02 bd
       -0.0541657 -0.033527423 0.033353448 -0.031911977
000370 2a d5 1d bd 3c 31 2a 3d ae 6d 09 3d 3f 3a 11 3d
       -0.038533367 0.04155086 0.033551864 0.03545594
000380 63 57 e7 bb 61 c8 92 3c 9c 13 f9 3c c8 d8 23 bd
       -0.007059978 0.017917814 0.030404858 -0.04000166
000390 f7 b6 13 3d fb a7 13 3c f8 27 69 bd f1 e9 25 bd
       0.03606316 0.009012218 -0.056922883 -0.040506307
0003a0 b2 e3 14 3d 68 75 ca 3b ae 01 b0 bb ba b5 b8 bb
       0.03634996 0.0061785467 -0.005371294 -0.005636898
0003b0 7e d8 55 3d 9c da cb 3c 9e 83 c3 3b 41 92 46 3c
       0.052208416 0.024884515 0.0059666177 0.012119831
0003c0 ab 1a 5d bc e0 34 06 3c 3a 58 97 3c ae 3d 64 bc
       -0.013495128 0.008191317 0.018474687 -0.013930721
0003d0 31 66 e0 3c 1d f8 7a bd ed 94 41 3c 27 a1 2b 3b
       0.027392479 -0.061271776 0.011815292 0.0026188584
0003e0 a4 65 81 3c ac d6 5b 3d 8c c3 2e bd 57 0d 2b bd
       0.015795536 0.053671524 -0.042666957 -0.04176077
0003f0 43 d0 45 bd fe aa 4b 3d ba 85 15 bd 82 6e 95 3b
       -0.048294317 0.049723618 -0.036504485 0.0045602927

net.2.linear.weight f4 [256, 256]
000000 16 23 25 bb 0e 62 d9 b8 0d 54 28 3b 56 dd 68 3b
       -0.0025197915 -0.000103656304 0.0025684864 0.0035532317
000010 96 cf 30 3b 0d e8 31 3b 62 70 a2 bb 76 fe 94 39
       0.00269792 0.002714637 -0.0049572447 0.00028418348
000020 68 87 25 ba 29 6e bc bb 2f ca df ba 2e ea 7b bb
       -0.00063144276 -0.005750437 -0.0017073805 -0.0038439143
000030 0c 29 24 bb 8e 71 c7 3b 52 c2 37 bb 07 e4 83 bb
       -0.002504888 0.006086535 -0.0028039408 -0.0040249857
000040 7d d2 b7 3b 08 63 21 3a bd 81 92 3b 7a a8 1c 3b
       0.005609809 0.00061564194 0.0044710324 0.002390413
000050 1b 93 ec ba c0 a1 91 3b 13 36 03 3b 71 04 96 3b
       -0.0018049212 0.004444331 0.0020021244 0.004578166
000060 8b 3e 80 3b cb 4d 93 3b c4 2f df 3a 9e 8f 91 38
       0.0039137057 0.0044953576 0.0017027785 6.9408896e-05
000070 7e d0 7c bb 82 82 6f bb 68 60 96 39 6a de 6f 3b
       -0.003857642 -0.0036546295 0.00028682058 0.0036601075
000080 99 0b 2e bb d0 f9 1b bb fc 89 92 3b a9 27 93 ba
       -0.0026557206 -0.0023800023 0.0044720154 -0.001122703
000090 ec d2 8a bb 6e ce 5b bb 9d 0a 5e 3b fb 46 7c bb
       -0.0042365696 -0.003353979 0.0033880838 -0.0038494456
0000a0 b5 2f 11 3b 77 12 67 bb 01 ad 2a 3a 5c ec 65 3b
       0.002215368 -0.0035258809 0.0006510765 0.0035083508
0000b0 9b 29 4f bb ff 4b b9 bb 21 2d 53 ba 0c 79 b0 3a
       -0.0031610492 -0.0056548114 -0.0008055736 0.0013463809
0000c0 58 15 b0 3a 81 00 34 3b 26 ca 09 b9 c3 f5 02 bb
       0.0013434095 0.002746612 -0.00013140644 -0.0019982911
0000d0 27 f0 49 3b 9f 81 b7 3a 82 45 b1 3a 5c 18 a2 bb
       0.0030813308 0.0014000422 0.0013524743 -0.0049467515
0000e0 45 d7 1e 3b 4f e8 6d 3b a6 d4 81 3a 8a b7 27 3b
       0.0024237197 0.0036301797 0.0009905293 0.0025591576
0000f0 7d d0 ce 3a 8d 51 65 3b 8b 78 9c 3b 09 b0 de ba
       0.0015778687 0.0034991235 0.004775112 -0.0016989718
000100 cf 82 9d 3b 48 63 ae ba 24 5b fb ba 9d 40 5a 3b
       0.0048068534 -0.0013304735 -0.0019176942 0.0033302673
000110 47 6b 21 bb 35 07 d3 39 4a e3 27 bb be bc 5b bb
       -0.0024630593 0.00040250426 -0.0025617653 -0.0033529247
000120 d3 1b 16 3a 9d 24 cc ba cb a2 66 3b c5 75 3a 3b
       0.0005726192 -0.0015574876 0.0035192247 0.0028451544
000130 d8 f7 8f 3b f6 8a b8 3b c9 31 4f bb 45 bc 34 bb
       0.004393559 0.0056318 -0.0031615368 -0.0027578038
000140 f7 2d 0d 3b c7 7d ec 3a d9 54 38 bb ba 33 17 bb
       0.002154229 0.0018042856 -0.0028126745 -0.0023071603
000150 d7 b5 84 3b d1 c7 70 bb 7d 37 a0 3b 8c f4 f5 3a
       0.0040499973 -0.0036740194 0.004889427 0.0018764897
000160 e9 f2 3a 3b fa 30 21 bb f3 db 06 bb d8 4b f4 3a
       0.0028526133 -0.0024595843 -0.0020577877 0.0018638326
000170 08 2c b1 3a 89 e3 3a bb fa 8d 98 3b f6 87 3e 3b
       0.0013517151 -0.002851697 0.004655597 0.0029072738
000180 82 c4 8b 3b d0 b2 7e bb 69 be c5 3b ab 60 73 3b
       0.004265369 -0.0038863905 0.0060346616 0.0037136476
000190 44 66 02 3b bf 79 a1 bb 6a 36 2a 3b 34 7d 33 bb
       0.001989738 -0.0049278433 0.0025972375 -0.002738786
0001a0 e2 7e 62 bb 67 d4 17 3a 4e 83 c5 3a dc 1e 2b 3b
       -0.0034560491 0.0005791843 0.0015069039 0.0026110923
0001b0 17 ea 88 3b 7f ac dd b9 ff b2 19 3b ca bd b9 3a
       0.0041782963 -0.00042280924 0.0023452637 0.0014170941
0001c0 b7 3d 4d 3b 5a e0 48 bb 3b f6 29 bb 80 bd a0 bb
       0.0031317302 -0.0030651302 -0.0025934118 -0.0049054027
0001d0 69 63 a2 b7 97 88 f8 3a 31 2a aa b9 3c a5 19 bb
       -1.9358196e-05 0.0018961605 -0.00032456362 -0.0023444435
0001e0 12 a1 ba 39 da 9c cc 3b 17 32 06 bb 34 fa 21 3a
       0.0003559669 0.006244284 -0.0020476633 0.0006178946
0001f0 f8 63 a7 3b eb 4e 2d 3b cb 84 1a bb c3 9d 55 bb
       0.0051083528 0.0026444744 -0.0023577686 -0.0032595254
000200 16 f0 92 3b 6b 28 c4 3a 73 6f 4e bb 15 53 91 bb
       0.004484187 0.0014965659 -0.0031499534 -0.004434953
000210 0d be ad bb 2c 91 df 3b b5 ee 4d bb f0 a2 85 3b
       -0.005302197 0.0068227258 -0.0031422798 0.0040782616
000220 67 1a 9e 3a 9b 99 37 bb 1c 06 1a 3b 4b 39 29 bb
       0.0012062312 -0.002801514 0.0023502177 -0.0025821503
000230 22 43 51 bb 20 be b8 3a ed aa f1 ba 04 c3 5e 39
       -0.0031930883 0.0014094748 -0.0018437781 0.00021244219
000240 de 53 ac 3a 09 83 4e bb e7 bf 77 3b f7 68 45 3b
       0.0013147553 -0.0031511209 0.0037803592 0.0030122378
000250 bf 71 ec 3a 5a d9 a1 3a 09 61 a3 bb 56 fe f2 b9
       0.001803927 0.0012348101 -0.0049859327 -0.00046347332
000260 c3 62 a9 bb 8a 59 a9 ba 17 01 8d 3b 00 fc f8 3a
       -0.005169244 -0.0012920361 0.0043031084 0.0018996
000270 53 1f 3c ba 20 6b f2 3a 63 3c a4 3b c8 8b 69 bb
       -0.00071762985 0.001849506 0.0050120815 -0.0035636295
000280 ab b2 6c bb 8c 68 9a 3a a5 ec 6f ba db 54 09 bb
       -0.0036117237 0.0011780425 -0.0009152389 -0.0020955119
000290 c6 4b 8e ba 51 1e 29 ba d7 87 14 bb d8 6c ed b9
       -0.0010856322 -0.0006451356 -0.0022663975 -0.00045285258
0002a0 5f 51 73 bb 83 17 16 3b ba cb 11 3b 17 0d d7 bb
       -0.0037127358 0.0022902198 0.0022246675 -0.0065628397
0002b0 16 3e 8f bb b7 aa 6c 3a 52 03 99 3b f0 59 88 3b
       -0.004371415 0.0009028124 0.0046695853 0.004161112
0002c0 cb 65 87 bb c2 3e 98 ba c3 db 87 bb 11 5e 36 ba
       -0.0041320077 -0.0011615383 -0.0041460707 -0.0006956766
0002d0 0e f4 13 bb 17 2f 6a 3b 8d a1 8a ba c1 e4 01 3a
       -0.0022575888 0.0035733634 -0.001057671 0.00049550465
0002e0 08 bd 78 3a a1 d5 39 ba dd 43 97 39 94 15 7e 3b
       0.0009488617 -0.0007089023 0.00028851526 0.0038770186
0002f0 a9 31 0a 3b 5b da 93 3a fe d4 a0 3b bf 92 42 ba
       0.0021086729 0.0011280285 0.004908203 -0.00074223796
000300 d3 b9 ae 3a 8c d7 86 bb 66 0b 7d bb 1e 49 94 3b
       0.0013330526 -0.0041150507 -0.003861153 0.004525318
000310 e7 77 f8 3a d8 f6 16 b9 ca 7d 9c 3b 69 09 a1 39
       0.0018956632 -0.00014397071 0.0047757374 0.00030715324
000320 fa 56 53 bb d3 cc 51 3b 5a db ee 3b ee 9d 3e bb
       -0.0032247887 0.0032012954 0.0072893323 -0.0029085833
000330 4d 7c b0 ba cf 86 8c bb bf c5 a8 39 c6 5e 1b 3b
       -0.0013464779 -0.0042885314 0.0003219079 0.0023707612
000340 65 46 c8 3a 0b 8e 18 3b 57 76 47 39 e8 ab 1c 3b
       0.0015279768 0.0023278024 0.00019022204 0.0023906175
000350 cb e4 54 3b d4 51 8c 3b 61 59 8b bb bd fc 06 3b
       0.0032485004 0.0042822156 -0.004252598 0.002059742
000360 24 90 85 b9 e1 af a4 bb d2 10 54 bb 65 fa 62 bb
       -0.0002547513 -0.005025849 -0.0032358659 -0.003463411
000370 1e 69 67 bb 97 40 6d bb 64 19 f7 ba 25 4b a3 3a
       -0.0035310457 -0.0036201829 -0.0018852171 0.0012458308
000380 56 f5 dc bb 91 51 01 3b 11 3f f6 3a 82 7f 4c bb
       -0.0067431135 0.0019732455 0.0018787106 -0.003120393
000390 87 20 68 bb ba 36 89 3b 0c 83 92 3a 7d 52 51 3b
       -0.0035419778 0.004187432 0.0011177971 0.0031940036
0003a0 ad be 27 bb 76 60 99 3b 59 11 be b8 25 2d 5c 3b
       -0.002559583 0.0046806885 -9.063137e-05 0.0033596244
0003b0 6a ca a4 3b 1d 44 46 bb e9 d0 94 bb 6b 69 8b ba
       0.0050290124 -0.0030253 -0.0045415056 -0.0010636275
0003c0 a7 92 05 3b 63 5f 67 ba db 91 6c bb c3 8f 82 b9
       0.00203816 -0.00088261644 -0.0036097679 -0.00024902643
0003d0 7f dd 06 3b 4d b8 46 3a 92 dc cc 3b 40 8d a2 bb
       0.00205788 0.00075805635 0.00625188 -0.004960686
0003e0 a6 7c 5e bb a7 13 fd ba f5 2e e9 3a 8e aa d0 b9
       -0.0033948808 -0.0019308225 0.0017790484 -0.00039799925
0003f0 b7 de 83 3b e8 04 3d ba 1f f7 e8 ba 2b 86 72 39
       0.0040243524 -0.0007210509 -0.0017773843 0.000231289

net.2.linear.bias f4 [256]
000000 14 b3 49 bd 4b e8 d6 3c ef 2f 02 3d 66 d1 7e 3d
       -0.049243048 0.026233813 0.031783994 0.062211417
000010 fc 8a 62 bc f7 2d 7c 3d eb e3 87 3c 01 a7 a7 ba
       -0.013827082 0.061567273 0.016588172 -0.001279086
000020 c6 2e 68 3d 4b 43 10 3d 8c 9c e0 3b 15 cc a1 3a
       0.05668523 0.035220426 0.0068545993 0.0012344146
000030 a4 b1 29 3c c7 4f d5 3a 4a 50 e2 3c 91 c7 98 3b
       0.010357294 0.0016274386 0.027626175 0.004662462
000040 b2 7e 48 bd 74 22 a3 bb 86 83 05 3b 86 72 27 39
       -0.04894895 -0.0049784724 0.0020372584 0.00015969024
000050 6d 03 6e 3d b9 c5 2b 3d 9c aa 66 bb bb ca a7 3c
       0.058108736 0.04193661 -0.0035196906 0.020482412
000060 79 0d c0 bc b8 4b c0 bc 9a 3e 1a bd 08 e7 6b 3c
       -0.023443924 -0.023473606 -0.037657358 0.014398344
000070 3c 70 eb bc d7 39 ab 3c f3 76 d1 3c 9b 1a 51 3b
       -0.028740041 0.020901604 0.025569415 0.0031906727
000080 b4 93 b0 3c de e4 04 3d fb 66 6b bc 63 7c 85 3c
       0.021554805 0.032444827 -0.014367814 0.016294664
000090 44 a5 1e 3c 6f 33 e1 3c 6d 34 78 3d f5 55 26 bd
       0.009682957 0.027490346 0.060596872 -0.04060932
0000a0 97 00 0e bc cf bb 1c bc 82 5d be 3a b7 1f 76 3d
       -0.008667133 -0.009566261 0.0014523717 0.06008884
0000b0 a1 ef 09 bd 1b 12 76 bd 09 06 6f 3d d4 b4 67 bd
       -0.033675794 -0.06007586 0.058355365 -0.056568936
0000c0 6e 45 bb bc e2 de 8a bb 47 cb 54 3d 11 aa ba 3c
       -0.022860255 -0.0042379955 0.051951673 0.022786172
0000d0 7f 8a 55 bc 8e bb d9 bc 76 d0 38 3d c3 5d d6 3c
       -0.013033508 -0.02657869 0.04512068 0.026167756
0000e0 18 ee 21 3c cd 14 e1 3c 8f cc 0f bd 02 34 7b 3d
       0.009883426 0.027475739 -0.03510719 0.061328895
0000f0 9d d6 ca 3c 97 7c 5e bd b5 fd 48 3d 6b e0 27 3d
       0.024760539 -0.054318037 0.04907008 0.040985506
000100 85 c8 64 3d 50 e8 56 bd 8d da 1e bd 83 60 da bc
       0.055855293 -0.052467644 -0.038782645 -0.026657348
000110 fc a3 08 bc dd 7d 34 3d 78 a1 5c 3b 47 95 09 3d
       -0.008339878 0.044065345 0.0033665579 0.033589628
000120 17 56 7f bd 31 f0 22 bd bc 49 2c 3d 33 40 6a bd
       -0.06233796 -0.039779846 0.042062506 -0.05719013
000130 d6 02 46 bd 1a 3f 54 bc c5 ca 76 3d 5c b9 f1 3c
       -0.04834255 -0.012954498 0.06025197 0.029507332
000140 90 e4 40 bd 58 f5 94 3b ba 22 67 bd af 5c 03 3d
       -0.047092974 0.004545849 -0.056429602 0.03207081
000150 bc 4d 65 bd d7 7c 7f bd 10 8c 7a 3d 0e ea 53 bd
       -0.055982336 -0.062374916 0.06116873 -0.051736884
000160 28 da ae 3b 03 63 d8 bc e7 ae f0 bc 47 77 e2 bc
       0.005336065 -0.0264144 -0.029380275 -0.027644766
000170 11 ff 1f 3d 6b 57 f4 3b a9 7a 56 bd 6f 27 2b bd
       0.03906161 0.00745671 -0.05236307 -0.041785654
000180 c1 72 47 3c 5c ed 9e bc 6d e9 c3 3c 19 c4 b4 bc
       0.012173356 -0.019400291 0.023915017 -0.022066163
000190 c2 41 70 bd ee 4c 2b bd f2 ea 6b 3d 2b cb 62 3d
       -0.05865646 -0.041821413 0.05759711 0.055369537
0001a0 c9 96 3e bd e3 46 12 3d 8b 2f 1f bd d7 28 59 bc
       -0.04653052 0.035712134 -0.0388637 -0.013254366
0001b0 01 7c f9 bb 76 63 36 3b 0e 5c a1 bc b7 df b9 bb
       -0.0076136594 0.002783028 -0.019697215 -0.005672421
0001c0 98 ef 59 bd dd 7f 5c 3b 37 5e 54 bd f8 4b 01 3d
       -0.05320701 0.0033645548 -0.051847663 0.03156659
0001d0 fa 34 1c bd 21 d9 e9 3c 6c 62 5a bd 88 f6 2d bc
       -0.03813646 0.028545918 -0.05331652 -0.01061786
0001e0 52 4c 2d 3c 2a 1a 5f bc 40 e9 5d 3d 94 18 78 3b
       0.010577278 -0.013617078 0.054177523 0.0037856447
0001f0 ac 8f 9e 3c 48 2f 34 3d a7 a9 84 bc 95 81 8c 3c
       0.019355617 0.043990403 -0.016194178 0.017151633
000200 3c 9a b2 3b 6d 79 38 3d b5 6f 6e bd f7 fd f3 3a
       0.005450515 0.045037676 -0.058212 0.0018615116
000210 63 57 2c bd 97 bc 6e bd 7a c6 59 3d 5b 1b 26 3d
       -0.042075526 -0.058285322 0.053167798 0.040553432
000220 9a 25 01 3d f4 3a a6 3c f0 50 ad 3c cd 10 56 3d
       0.03153 0.020291783 0.021156758 0.052262116
000230 19 e2 25 bc 91 9b 1e bd e0 90 f5 bc 92 49 48 3d
       -0.010124707 -0.03872258 -0.029976308 0.048898287
000240 d9 61 6d 3b d6 12 ad bc e0 01 1b 3c be 4e 58 bc
       0.0036221652 -0.021127146 0.009460896 -0.013202367
000250 22 df f1 bc 6f 52 b1 3c 25 0f 7c bd 47 b0 39 3d
       -0.029525343 0.021645753 -0.06153788 0.045334127
000260 ed 45 3a bc 2c bd 26 bd 17 c1 13 3d 38 3f 15 3d
       -0.011369211 -0.040707752 0.036072817 0.036437243
000270 69 61 d4 3b d0 70 64 3c 0f 2d 4b 3d d7 0c 46 bd
       0.0064813388 0.013942912 0.049603518 -0.04835209
000280 76 f0 06 3a 6b d3 94 bc fd 42 78 3c fc dd 16 3d
       0.0005147526 -0.018167218 0.01515269 0.036832795
000290 e4 cc 5a 3d c0 e0 3d 3d eb a5 e1 3c 83 e0 28 3d
       0.053418055 0.046356916 0.027544936 0.041229736
0002a0 65 87 f5 3c f5 49 60 3c 92 31 3d 3d d2 94 48 3b
       0.029971788 0.013689508 0.046189852 0.0030606282
0002b0 7e fa 42 3d c7 ba 12 bd 06 f2 72 bd e9 a7 09 bc
       0.04760217 -0.035822656 -0.059312843 -0.008401849
0002c0 2a 8d e9 bb 61 d0 ab 3c 93 df 79 bd 8a dd 27 3d
       -0.007127424 0.020973386 -0.061004233 0.04098276
0002d0 3e dc a3 3b 5b 7d 00 3d 54 e6 12 bb 01 2a f3 bc
       0.00500062 0.03136955 -0.0022415118 -0.029683115
0002e0 ff ef ee 3c 78 2a 0a bd 2d de 3a 3d 8a c4 74 bc
       0.029167173 -0.033731908 0.04562204 -0.014939437
0002f0 51 bf c6 bc 21 1a 3b bc 58 28 64 bd 39 9e 08 3d
       -0.024261149 -0.011419804 -0.055702537 0.033354018
000300 4a 68 4c 3d 91 c0 58 bd 56 a3 13 3c 03 ca de bc
       0.049904145 -0.05291802 0.00901111 -0.027195936
000310 a3 36 80 bd 1a 0d 11 bd c1 c6 9e 3c bf 7e 8a 3c
       -0.06260421 -0.035412885 0.019381883 0.01690614
000320 6f 05 46 3d 41 65 3e bd 18 1f 2b bd 83 b2 63 bd
       0.048345026 -0.046483282 -0.0417777 -0.055590164
000330 24 5e ff bb 55 de 6d bd 1c 72 a9 bc b7 02 d7 3c
       -0.007793205 -0.05807336 -0.020684294 0.026246412
000340 5b 77 0c 3d 76 90 5b 3d 84 21 11 3d b4 2a 49 bd
       0.034293514 0.053604566 0.035432354 -0.04911299
000350 8f 71 b6 3c 9c 77 01 bd 58 5d ee bc 3a 23 13 3c
       0.022270946 -0.03160821 -0.029097244 0.008980567
000360 a8 29 35 bd 2b 29 ec bb a0 90 f5 bc 37 1b c6 3c
       -0.04422918 -0.007207056 -0.02997619 0.024182899
000370 a4 59 e0 bc 2f ea 91 bb bf 1e e1 bc d6 c5 f1 3c
       -0.027386494 -0.0044529657 -0.027480481 0.02951328
000380 ac 25 5a 3d 73 2c 7c 3d 04 8f 48 bd 5f 91 5e 3d
       0.053258583 0.061565828 -0.048964515 0.054337855
000390 9a b8 5c 3d 21 7e c6 3c fa 7a 65 3b 39 f9 28 bd
       0.053886987 0.024230065 0.0035015927 -0.041253302
0003a0 a3 ae fa 3b 35 22 ee 3c 2a 1f 27 3d ee dc 37 bd
       0.007650213 0.029069046 0.040801205 -0.04488843
0003b0 4c 68 5b bb c4 a2 45 bd 3f cf 38 bd 0c 1b 03 3d
       -0.0033478914 -0.04825093 -0.04511952 0.032008216
0003c0 22 2f a0 bc 0a 0c fb bc 15 df 48 3d 7c 70 22 bd
       -0.019553725 -0.03064539 0.049040873 -0.039658055
0003d0 4f 65 d1 3c 26 7e 0c 3c 65 e7 e8 ba ad 0a 67 3d
       0.025561003 0.008574998 -0.0017769156 0.056406666
0003e0 0b 2b 50 bd 66 2a b2 3c 50 22 92 3c 20 19 02 bd
       -0.0508223 0.021748733 0.017838627 -0.031762242
0003f0 82 04 78 bd 8b 5d 17 bd ac 6e b9 3c 58 5b 82 3c
       -0.060551174 -0.036954444 0.02263578 0.015912697
